…
.732698Z","iopub.status.idle":"2025-05-25T11:58:29.747676Z","shell.execute_reply.started":"2025-05-25T11:58:28.732672Z","shell.execute_reply":"2025-05-25T11:58:29.746947Z"}},"outputs":[{"name":"stderr","text":"Downloading: \"https://download.pytorch.org/models/efficientnet_v2_s-dd5fe13b.pth\" to /root/.cache/torch/hub/checkpoints/efficientnet_v2_s-dd5fe13b.pth\n100%|██████████| 82.7M/82.7M [00:00<00:00, 213MB/s]\n","output_type":"stream"},{"execution_count":17,"output_type":"execute_result","data":{"text/plain":"EfficientNet(\n  (features): Sequential(\n    (0): Conv2dNormActivation(\n      (0): Conv2d(3, 24, kernel_size=(3, 3), stride=(2, 2), padding=(1, 1), bias=False)\n      (1): BatchNorm2d(24, eps=0.001, momentum=0.1, affine=True, track_running_stats=True)\n      (2): SiLU(inplace=True)\n    )\n    (1): Sequential(\n      (0): FusedMBConv(\n        (block): Sequential(\n          (0): Conv2dNormActivation(\n            (0): Conv2d(24, 24, kernel_size=(3, 3), stride=(1, 1), padding=(1, 1), bias=False)\n            (1): BatchNorm2d(24, eps=0.001, momentum=0.1, affine=True, track_running_stats=True)\n            (2): SiLU(inplace=True)\n          )\n        )\n        (stochastic_depth): StochasticDepth(p=0.0, mode=row)\n      )\n      (1): FusedMBConv(\n        (block): Sequential(\n          (0): Conv2dNormActivation(\n            (0): Conv2d(24, 24, kernel_size=(3, 3), stride=(1, 1), padding=(1, 1), bias=False)\n            (1): BatchNorm2d(24, eps=0.001, momentum=0.1, affine=True, track_running_stats=True)\n            (2): SiLU(inplace=True)\n          )\n        )\n        (stochastic_depth): StochasticDepth(p=0.005, mode=row)\n      )\n    )\n    (2): Sequential(\n      (0): FusedMBConv(\n        (block): Sequential(\n          (0): Conv2dNormActivation(\n            (0): Conv2d(24, 96, kernel_size=(3, 3), stride=(2, 2), padding=(1, 1), bias=False)\n            (1): BatchNorm2d(96, eps=0.001, momentum=0.1, affine=True, track_running_stats=True)\n            (2): SiLU(inplace=True)\n          )\n          (1): Conv2dNormActivation(\n            (0): Conv2d(96, 48, kernel_size=(1, 1), stride=(1, 1), bias=False)\n            (1): BatchNorm2d(48, eps=0.001, momentum=0.1, affine=True, track_running_stats=True)\n          )\n        )\n        (stochastic_depth): StochasticDepth(p=0.01, mode=row)\n      )\n      (1): FusedMBConv(\n        (block): Sequential(\n          (0): Conv2dNormActivation(\n            (0): Conv2d(48, 192, kernel_size=(3, 3), stride=(1, 1), padding=(1, 1), bias=False)\n            (1): BatchNorm2d(192, eps=0.001, momentum=0.1, affine=True, track_running_stats=True)\n            (2): SiLU(inplace=True)\n          )\n          (1): Conv2dNormActivation(\n            (0): Conv2d(192, 48, kernel_size=(1, 1), stride=(1, 1), bias=False)\n            (1): BatchNorm2d(48, eps=0.001, momentum=0.1, affine=True, track_running_stats=True)\n          )\n        )\n        (stochastic_depth): StochasticDepth(p=0.015000000000000003, mode=row)\n      )\n      (2): FusedMBConv(\n        (block): Sequential(\n          (0): Conv2dNormActivation(\n            (0): Conv2d(48, 192, kernel_size=(3, 3), stride=(1, 1), padding=(1, 1), bias=False)\n            (1): BatchNorm2d(192, eps=0.001, momentum=0.1, affine=True, track_running_stats=True)\n            (2): SiLU(inplace=True)\n          )\n          (1): Conv2dNormActivation(\n            (0): Conv2d(192, 48, kernel_size=(1, 1), stride=(1, 1), bias=False)\n            (1): BatchNorm2d(48, eps=0.001, momentum=0.1, affine=True, track_running_stats=True)\n          )\n        )\n        (stochastic_depth): StochasticDepth(p=0.02, mode=row)\n      )\n      (3): FusedMBConv(\n        (block): Sequential(\n          (0): Conv2dNormActivation(\n            (0): Conv2d(48, 192, kernel_size=(3, 3), stride=(1, 1), padding=(1, 1), bias=False)\n            (1): BatchNorm2d(192, eps=0.001, momentum=0.1, affine=True, track_running_stats=True)\n            (2): SiLU(inplace=True)\n          )\n          (1): Conv2dNormActivation(\n            (0): Conv2d(192, 48, kernel_size=(1, 1), stride=(1, 1), bias=False)\n            (1): BatchNorm2d(48, eps=0.001, momentum=0.1, affine=True, track_running_stats=True)\n          )\n        )\n        (stochastic_depth): StochasticDepth(p=0.025, mode=row)\n      )\n    )\n    (3): Sequential(\n      (0): FusedMBConv(\n        (block): Sequential(\n          (0): Conv2dNormActivation(\n            (0): Conv2d(48, 192, kernel_size=(3, 3), stride=(2, 2), padding=(1, 1), bias=False)\n            (1): BatchNorm2d(192, eps=0.001, momentum=0.1, affine=True, track_running_stats=True)\n            (2): SiLU(inplace=True)\n          )\n          (1): Conv2dNormActivation(\n            (0): Conv2d(192, 64, kernel_size=(1, 1), stride=(1, 1), bias=False)\n            (1): BatchNorm2d(64, eps=0.001, momentum=0.1, affine=True, track_running_stats=True)\n          )\n        )\n        (stochastic_depth): StochasticDepth(p=0.030000000000000006, mode=row)\n      )\n      (1): FusedMBConv(\n        (block): Sequential(\n          (0): Conv2dNormActivation(\n            (0): Conv2d(64, 256, kernel_size=(3, 3), stride=(1, 1), padding=(1, 1), bias=False)\n            (1): BatchNorm2d(256, eps=0.001, momentum=0.1, affine=True, track_running_stats=True)\n            (2): SiLU(inplace=True)\n          )\n          (1): Conv2dNormActivation(\n            (0): Conv2d(256, 64, kernel_size=(1, 1), stride=(1, 1), bias=False)\n            (1): BatchNorm2d(64, eps=0.001, momentum=0.1, affine=True, track_running_stats=True)\n          )\n        )\n        (stochastic_depth): StochasticDepth(p=0.035, mode=row)\n      )\n      (2): FusedMBConv(\n        (block): Sequential(\n          (0): Conv2dNormActivation(\n            (0): Conv2d(64, 256, kernel_size=(3, 3), stride=(1, 1), padding=(1, 1), bias=False)\n            (1): BatchNorm2d(256, eps=0.001, momentum=0.1, affine=True, track_running_stats=True)\n            (2): SiLU(inplace=True)\n          )\n          (1): Conv2dNormActivation(\n            (0): Conv2d(256, 64, kernel_size=(1, 1), stride=(1, 1), bias=False)\n            (1): BatchNorm2d(64, eps=0.001, momentum=0.1, affine=True, track_running_stats=True)\n          )\n        )\n        (stochastic_depth): StochasticDepth(p=0.04, mode=row)\n      )\n      (3): FusedMBConv(\n        (block): Sequential(\n          (0): Conv2dNormActivation(\n            (0): Conv2d(64, 256, kernel_size=(3, 3), stride=(1, 1), padding=(1, 1), bias=False)\n            (1): BatchNorm2d(256, eps=0.001, momentum=0.1, affine=True, track_running_stats=True)\n            (2): SiLU(inplace=True)\n          )\n          (1): Conv2dNormActivation(\n            (0): Conv2d(256, 64, kernel_size=(1, 1), stride=(1, 1), bias=False)\n            (1): BatchNorm2d(64, eps=0.001, momentum=0.1, affine=True, track_running_stats=True)\n          )\n        )\n        (stochastic_depth): StochasticDepth(p=0.045, mode=row)\n      )\n    )\n    (4): Sequential(\n      (0): MBConv(\n        (block): Sequential(\n          (0): Conv2dNormActivation(\n            (0): Conv2d(64, 256, kernel_size=(1, 1), stride=(1, 1), bias=False)\n            (1): BatchNorm2d(256, eps=0.001, momentum=0.1, affine=True, track_running_stats=True)\n            (2): SiLU(inplace=True)\n          )\n          (1): Conv2dNormActivation(\n            (0): Conv2d(256, 256, kernel_size=(3, 3), stride=(2, 2), padding=(1, 1), groups=256, bias=False)\n            (1): BatchNorm2d(256, eps=0.001, momentum=0.1, affine=True, track_running_stats=True)\n            (2): SiLU(inplace=True)\n          )\n          (2): SqueezeExcitation(\n            (avgpool): AdaptiveAvgPool2d(output_size=1)\n            (fc1): Conv2d(256, 16, kernel_size=(1, 1), stride=(1, 1))\n            (fc2): Conv2d(16, 256, kernel_size=(1, 1), stride=(1, 1))\n            (activation): SiLU(inplace=True)\n            (scale_activation): Sigmoid()\n          )\n          (3): Conv2dNormActivation(\n            (0): Conv2d(256, 128, kernel_size=(1, 1), stride=(1, 1), bias=False)\n            (1): BatchNorm2d(128, eps=0.001, momentum=0.1, affine=True, track_running_stats=True)\n          )\n        )\n        (stochastic_depth): StochasticDepth(p=0.05, mode=row)\n      )\n      (1): MBConv(\n        (block): Sequential(\n          (0): Conv2dNormActivation(\n            (0): Conv2d(128, 512, kernel_size=(1, 1), stride=(1, 1), bias=False)\n            (1): BatchNorm2d(512, eps=0.001, momentum=0.1, affine=True, track_running_stats=True)\n            (2): SiLU(inplace=True)\n          )\n          (1): Conv2dNormActivation(\n            (0): Conv2d(512, 512, kernel_size=(3, 3), stride=(1, 1), padding=(1, 1), groups=512, bias=False)\n            (1): BatchNorm2d(512, eps=0.001, momentum=0.1, affine=True, track_running_stats=True)\n            (2): SiLU(inplace=True)\n          )\n          (2): SqueezeExcitation(\n            (avgpool): AdaptiveAvgPool2d(output_size=1)\n            (fc1): Conv2d(512, 32, kernel_size=(1, 1), stride=(1, 1))\n            (fc2): Conv2d(32, 512, kernel_size=(1, 1), stride=(1, 1))\n            (activation): SiLU(inplace=True)\n            (scale_activation): Sigmoid()\n          )\n          (3): Conv2dNormActivation(\n            (0): Conv2d(512, 128, kernel_size=(1, 1), stride=(1, 1), bias=False)\n            (1): BatchNorm2d(128, eps=0.001, momentum=0.1, affine=True, track_running_stats=True)\n          )\n        )\n        (stochastic_depth): StochasticDepth(p=0.05500000000000001, mode=row)\n      )\n      (2): MBConv(\n        (block): Sequential(\n          (0): Conv2dNormActivation(\n            (0): Conv2d(128, 512, kernel_size=(1, 1), stride=(1, 1), bias=False)\n            (1): BatchNorm2d(512, eps=0.001, momentum=0.1, affine=True, track_running_stats=True)\n            (2): SiLU(inplace=True)\n          )\n          (1): Conv2dNormActivation(\n            (0): Conv2d(512, 512, kernel_size=(3, 3), stride=(1, 1), padding=(1, 1), groups=512, bias=False)\n            (1): BatchNorm2d(512, eps=0.001, momentum=0.1, affine=True, track_running_stats=True)\n            (2): SiLU(inplace=True)\n          )\n          (2): SqueezeExcitation(\n            (avgpool): AdaptiveAvgPool2d(output_size=1)\n            (fc1): Conv2d(512, 32, kernel_size=(1, 1), stride=(1, 1))\n            (fc2): Conv2d(32, 512, kernel_size=(1, 1), stride=(1, 1))\n            (activation): SiLU(inplace=True)\n            (scale_activation): Sigmoid()\n          )\n          (3): Conv2dNormActivation(\n            (0): Conv2d(512, 128, kernel_size=(1, 1), stride=(1, 1), bias=False)\n            (1): BatchNorm2d(128, eps=0.001, momentum=0.1, affine=True, track_running_stats=True)\n          )\n        )\n        (stochastic_depth): StochasticDepth(p=0.06000000000000001, mode=row)\n      )\n      (3): MBConv(\n        (block): Sequential(\n          (0): Conv2dNormActivation(\n            (0): Conv2d(128, 512, kernel_size=(1, 1), stride=(1, 1), bias=False)\n            (1): BatchNorm2d(512, eps=0.001, momentum=0.1, affine=True, track_running_stats=True)\n            (2): SiLU(inplace=True)\n          )\n          (1): Conv2dNormActivation(\n            (0): Conv2d(512, 512, kernel_size=(3, 3), stride=(1, 1), padding=(1, 1), groups=512, bias=False)\n            (1): BatchNorm2d(512, eps=0.001, momentum=0.1, affine=True, track_running_stats=True)\n            (2): SiLU(inplace=True)\n          )\n          (2): SqueezeExcitation(\n            (avgpool): AdaptiveAvgPool2d(output_size=1)\n            (fc1): Conv2d(512, 32, kernel_size=(1, 1), stride=(1, 1))\n            (fc2): Conv2d(32, 512, kernel_size=(1, 1), stride=(1, 1))\n            (activation): SiLU(inplace=True)\n            (scale_activation): Sigmoid()\n          )\n          (3): Conv2dNormActivation(\n            (0): Conv2d(512, 128, kernel_size=(1, 1), stride=(1, 1), bias=False)\n            (1): BatchNorm2d(128, eps=0.001, momentum=0.1, affine=True, track_running_stats=True)\n          )\n        )\n        (stochastic_depth): StochasticDepth(p=0.065, mode=row)\n      )\n      (4): MBConv(\n        (block): Sequential(\n          (0): Conv2dNormActivation(\n            (0): Conv2d(128, 512, kernel_size=(1, 1), stride=(1, 1), bias=False)\n            (1): BatchNorm2d(512, eps=0.001, momentum=0.1, affine=True, track_running_stats=True)\n            (2): SiLU(inplace=True)\n          )\n          (1): Conv2dNormActivation(\n            (0): Conv2d(512, 512, kernel_size=(3, 3), stride=(1, 1), padding=(1, 1), groups=512, bias=False)\n            (1): BatchNorm2d(512, eps=0.001, momentum=0.1, affine=True, track_running_stats=True)\n            (2): SiLU(inplace=True)\n          )\n          (2): SqueezeExcitation(\n            (avgpool): AdaptiveAvgPool2d(output_size=1)\n            (fc1): Conv2d(512, 32, kernel_size=(1, 1), stride=(1, 1))\n            (fc2): Conv2d(32, 512, kernel_size=(1, 1), stride=(1, 1))\n            (activation): SiLU(inplace=True)\n            (scale_activation): Sigmoid()\n          )\n          (3): Conv2dNormActivation(\n            (0): Conv2d(512, 128, kernel_size=(1, 1), stride=(1, 1), bias=False)\n            (1): BatchNorm2d(128, eps=0.001, momentum=0.1, affine=True, track_running_stats=True)\n          )\n        )\n        (stochastic_depth): StochasticDepth(p=0.07, mode=row)\n      )\n      (5): MBConv(\n        (block): Sequential(\n          (0): Conv2dNormActivation(\n            (0): Conv2d(128, 512, kernel_size=(1, 1), stride=(1, 1), bias=False)\n            (1): BatchNorm2d(512, eps=0.001, momentum=0.1, affine=True, track_running_stats=True)\n            (2): SiLU(inplace=True)\n          )\n          (1): Conv2dNormActivation(\n            (0): Conv2d(512, 512, kernel_size=(3, 3), stride=(1, 1), padding=(1, 1), groups=512, bias=False)\n            (1): BatchNorm2d(512, eps=0.001, momentum=0.1, affine=True, track_running_stats=True)\n            (2): SiLU(inplace=True)\n          )\n          (2): SqueezeExcitation(\n            (avgpool): AdaptiveAvgPool2d(output_size=1)\n            (fc1): Conv2d(512, 32, kernel_size=(1, 1), stride=(1, 1))\n            (fc2): Conv2d(32, 512, kernel_size=(1, 1), stride=(1, 1))\n            (activation): SiLU(inplace=True)\n            (scale_activation): Sigmoid()\n          )\n          (3): Conv2dNormActivation(\n            (0): Conv2d(512, 128, kernel_size=(1, 1), stride=(1, 1), bias=False)\n            (1): BatchNorm2d(128, eps=0.001, momentum=0.1, affine=True, track_running_stats=True)\n          )\n        )\n        (stochastic_depth): StochasticDepth(p=0.075, mode=row)\n      )\n    )\n    (5): Sequential(\n      (0): MBConv(\n        (block): Sequential(\n          (0): Conv2dNormActivation(\n            (0): Conv2d(128, 768, kernel_size=(1, 1), stride=(1, 1), bias=False)\n            (1): BatchNorm2d(768, eps=0.001, momentum=0.1, affine=True, track_running_stats=True)\n            (2): SiLU(inplace=True)\n          )\n          (1): Conv2dNormActivation(\n            (0): Conv2d(768, 768, kernel_size=(3, 3), stride=(1, 1), padding=(1, 1), groups=768, bias=False)\n            (1): BatchNorm2d(768, eps=0.001, momentum=0.1, affine=True, track_running_stats=True)\n            (2): SiLU(inplace=True)\n          )\n          (2): SqueezeExcitation(\n            (avgpool): AdaptiveAvgPool2d(output_size=1)\n            (fc1): Conv2d(768, 32, kernel_size=(1, 1), stride=(1, 1))\n            (fc2): Conv2d(32, 768, kernel_size=(1, 1), stride=(1, 1))\n            (activation): SiLU(inplace=True)\n            (scale_activation): Sigmoid()\n          )\n          (3): Conv2dNormActivation(\n            (0): Conv2d(768, 160, kernel_size=(1, 1), stride=(1, 1), bias=False)\n            (1): BatchNorm2d(160, eps=0.001, momentum=0.1, affine=True, track_running_stats=True)\n          )\n        )\n        (stochastic_depth): StochasticDepth(p=0.08, mode=row)\n      )\n      (1): MBConv(\n        (block): Sequential(\n          (0): Conv2dNormActivation(\n            (0): Conv2d(160, 960, kernel_size=(1, 1), stride=(1, 1), bias=False)\n            (1): BatchNorm2d(960, eps=0.001, momentum=0.1, affine=True, track_running_stats=True)\n            (2): SiLU(inplace=True)\n          )\n          (1): Conv2dNormActivation(\n            (0): Conv2d(960, 960, kernel_size=(3, 3), stride=(1, 1), padding=(1, 1), groups=960, bias=False)\n            (1): BatchNorm2d(960, eps=0.001, momentum=0.1, affine=True, track_running_stats=True)\n            (2): SiLU(inplace=True)\n          )\n          (2): SqueezeExcitation(\n            (avgpool): AdaptiveAvgPool2d(output_size=1)\n            (fc1): Conv2d(960, 40, kernel_size=(1, 1), stride=(1, 1))\n            (fc2): Conv2d(40, 960, kernel_size=(1, 1), stride=(1, 1))\n            (activation): SiLU(inplace=True)\n            (scale_activation): Sigmoid()\n          )\n          (3): Conv2dNormActivation(\n            (0): Conv2d(960, 160, kernel_size=(1, 1), stride=(1, 1), bias=False)\n            (1): BatchNorm2d(160, eps=0.001, momentum=0.1, affine=True, track_running_stats=True)\n          )\n        )\n        (stochastic_depth): StochasticDepth(p=0.085, mode=row)\n      )\n      (2): MBConv(\n        (block): Sequential(\n          (0): Conv2dNormActivation(\n            (0): Conv2d(160, 960, kernel_size=(1, 1), stride=(1, 1), bias=False)\n            (1): BatchNorm2d(960, eps=0.001, momentum=0.1, affine=True, track_running_stats=True)\n            (2): SiLU(inplace=True)\n          )\n          (1): Conv2dNormActivation(\n            (0): Conv2d(960, 960, kernel_size=(3, 3), stride=(1, 1), padding=(1, 1), groups=960, bias=False)\n            (1): BatchNorm2d(960, eps=0.001, momentum=0.1, affine=True, track_running_stats=True)\n            (2): SiLU(inplace=True)\n          )\n          (2): SqueezeExcitation(\n            (avgpool): AdaptiveAvgPool2d(output_size=1)\n            (fc1): Conv2d(960, 40, kernel_size=(1, 1), stride=(1, 1))\n            (fc2): Conv2d(40, 960, kernel_size=(1, 1), stride=(1, 1))\n            (activation): SiLU(inplace=True)\n            (scale_activation): Sigmoid()\n          )\n          (3): Conv2dNormActivation(\n            (0): Conv2d(960, 160, kernel_size=(1, 1), stride=(1, 1), bias=False)\n            (1): BatchNorm2d(160, eps=0.001, momentum=0.1, affine=True, track_running_stats=True)\n          )\n        )\n        (stochastic_depth): StochasticDepth(p=0.09, mode=row)\n      )\n      (3): MBConv(\n        (block): Sequential(\n          (0): Conv2dNormActivation(\n            (0): Conv2d(160, 960, kernel_size=(1, 1), stride=(1, 1), bias=False)\n            (1): BatchNorm2d(960, eps=0.001, momentum=0.1, affine=True, track_running_stats=True)\n            (2): SiLU(inplace=True)\n          )\n          (1): Conv2dNormActivation(\n            (0): Conv2d(960, 960, kernel_size=(3, 3), stride=(1, 1), padding=(1, 1), groups=960, bias=False)\n            (1): BatchNorm2d(960, eps=0.001, momentum=0.1, affine=True, track_running_stats=True)\n            (2): SiLU(inplace=True)\n          )\n          (2): SqueezeExcitation(\n            (avgpool): AdaptiveAvgPool2d(output_size=1)\n            (fc1): Conv2d(960, 40, kernel_size=(1, 1), stride=(1, 1))\n            (fc2): Conv2d(40, 960, kernel_size=(1, 1), stride=(1, 1))\n            (activation): SiLU(inplace=True)\n            (scale_activation): Sigmoid()\n          )\n          (3): Conv2dNormActivation(\n            (0): Conv2d(960, 160, kernel_size=(1, 1), stride=(1, 1), bias=False)\n            (1): BatchNorm2d(160, eps=0.001, momentum=0.1, affine=True, track_running_stats=True)\n          )\n        )\n        (stochastic_depth): StochasticDepth(p=0.095, mode=row)\n      )\n      (4): MBConv(\n        (block): Sequential(\n          (0): Conv2dNormActivation(\n            (0): Conv2d(160, 960, kernel_size=(1, 1), stride=(1, 1), bias=False)\n            (1): BatchNorm2d(960, eps=0.001, momentum=0.1, affine=True, track_running_stats=True)\n            (2): SiLU(inplace=True)\n          )\n          (1): Conv2dNormActivation(\n            (0): Conv2d(960, 960, kernel_size=(3, 3), stride=(1, 1), padding=(1, 1), groups=960, bias=False)\n            (1): BatchNorm2d(960, eps=0.001, momentum=0.1, affine=True, track_running_stats=True)\n            (2): SiLU(inplace=True)\n          )\n          (2): SqueezeExcitation(\n            (avgpool): AdaptiveAvgPool2d(output_size=1)\n            (fc1): Conv2d(960, 40, kernel_size=(1, 1), stride=(1, 1))\n            (fc2): Conv2d(40, 960, kernel_size=(1, 1), stride=(1, 1))\n            (activation): SiLU(inplace=True)\n            (scale_activation): Sigmoid()\n          )\n          (3): Conv2dNormActivation(\n            (0): Conv2d(960, 160, kernel_size=(1, 1), stride=(1, 1), bias=False)\n            (1): BatchNorm2d(160, eps=0.001, momentum=0.1, affine=True, track_running_stats=True)\n          )\n        )\n        (stochastic_depth): StochasticDepth(p=0.1, mode=row)\n      )\n      (5): MBConv(\n        (block): Sequential(\n          (0): Conv2dNormActivation(\n            (0): Conv2d(160, 960, kernel_size=(1, 1), stride=(1, 1), bias=False)\n            (1): BatchNorm2d(960, eps=0.001, momentum=0.1, affine=True, track_running_stats=True)\n            (2): SiLU(inplace=True)\n          )\n          (1): Conv2dNormActivation(\n            (0): Conv2d(960, 960, kernel_size=(3, 3), stride=(1, 1), padding=(1, 1), groups=960, bias=False)\n            (1): BatchNorm2d(960, eps=0.001, momentum=0.1, affine=True, track_running_stats=True)\n            (2): SiLU(inplace=True)\n          )\n          (2): SqueezeExcitation(\n            (avgpool): AdaptiveAvgPool2d(output_size=1)\n            (fc1): Conv2d(960, 40, kernel_size=(1, 1), stride=(1, 1))\n            (fc2): Conv2d(40, 960, kernel_size=(1, 1), stride=(1, 1))\n            (activation): SiLU(inplace=True)\n            (scale_activation): Sigmoid()\n          )\n          (3): Conv2dNormActivation(\n            (0): Conv2d(960, 160, kernel_size=(1, 1), stride=(1, 1), bias=False)\n            (1): BatchNorm2d(160, eps=0.001, momentum=0.1, affine=True, track_running_stats=True)\n          )\n        )\n        (stochastic_depth): StochasticDepth(p=0.10500000000000001, mode=row)\n      )\n      (6): MBConv(\n        (block): Sequential(\n          (0): Conv2dNormActivation(\n            (0): Conv2d(160, 960, kernel_size=(1, 1), stride=(1, 1), bias=False)\n            (1): BatchNorm2d(960, eps=0.001, momentum=0.1, affine=True, track_running_stats=True)\n            (2): SiLU(inplace=True)\n          )\n          (1): Conv2dNormActivation(\n            (0): Conv2d(960, 960, kernel_size=(3, 3), stride=(1, 1), padding=(1, 1), groups=960, bias=False)\n            (1): BatchNorm2d(960, eps=0.001, momentum=0.1, affine=True, track_running_stats=True)\n            (2): SiLU(inplace=True)\n          )\n          (2): SqueezeExcitation(\n            (avgpool): AdaptiveAvgPool2d(output_size=1)\n            (fc1): Conv2d(960, 40, kernel_size=(1, 1), stride=(1, 1))\n            (fc2): Conv2d(40, 960, kernel_size=(1, 1), stride=(1, 1))\n            (activation): SiLU(inplace=True)\n            (scale_activation): Sigmoid()\n          )\n          (3): Conv2dNormActivation(\n            (0): Conv2d(960, 160, kernel_size=(1, 1), stride=(1, 1), bias=False)\n            (1): BatchNorm2d(160, eps=0.001, momentum=0.1, affine=True, track_running_stats=True)\n          )\n        )\n        (stochastic_depth): StochasticDepth(p=0.11000000000000001, mode=row)\n      )\n      (7): MBConv(\n        (block): Sequential(\n          (0): Conv2dNormActivation(\n            (0): Conv2d(160, 960, kernel_size=(1, 1), stride=(1, 1), bias=False)\n            (1): BatchNorm2d(960, eps=0.001, momentum=0.1, affine=True, track_running_stats=True)\n            (2): SiLU(inplace=True)\n          )\n          (1): Conv2dNormActivation(\n            (0): Conv2d(960, 960, kernel_size=(3, 3), stride=(1, 1), padding=(1, 1), groups=960, bias=False)\n            (1): BatchNorm2d(960, eps=0.001, momentum=0.1, affine=True, track_running_stats=True)\n            (2): SiLU(inplace=True)\n          )\n          (2): SqueezeExcitation(\n            (avgpool): AdaptiveAvgPool2d(output_size=1)\n            (fc1): Conv2d(960, 40, kernel_size=(1, 1), stride=(1, 1))\n            (fc2): Conv2d(40, 960, kernel_size=(1, 1), stride=(1, 1))\n            (activation): SiLU(inplace=True)\n            (scale_activation): Sigmoid()\n          )\n          (3): Conv2dNormActivation(\n            (0): Conv2d(960, 160, kernel_size=(1, 1), stride=(1, 1), bias=False)\n            (1): BatchNorm2d(160, eps=0.001, momentum=0.1, affine=True, track_running_stats=True)\n          )\n        )\n        (stochastic_depth): StochasticDepth(p=0.11500000000000002, mode=row)\n      )\n      (8): MBConv(\n        (block): Sequential(\n          (0): Conv2dNormActivation(\n            (0): Conv2d(160, 960, kernel_size=(1, 1), stride=(1, 1), bias=False)\n            (1): BatchNorm2d(960, eps=0.001, momentum=0.1, affine=True, track_running_stats=True)\n            (2): SiLU(inplace=True)\n          )\n          (1): Conv2dNormActivation(\n            (0): Conv2d(960, 960, kernel_size=(3, 3), stride=(1, 1), padding=(1, 1), groups=960, bias=False)\n            (1): BatchNorm2d(960, eps=0.001, momentum=0.1, affine=True, track_running_stats=True)\n            (2): SiLU(inplace=True)\n          )\n          (2): SqueezeExcitation(\n            (avgpool): AdaptiveAvgPool2d(output_size=1)\n            (fc1): Conv2d(960, 40, kernel_size=(1, 1), stride=(1, 1))\n            (fc2): Conv2d(40, 960, kernel_size=(1, 1), stride=(1, 1))\n            (activation): SiLU(inplace=True)\n            (scale_activation): Sigmoid()\n          )\n          (3): Conv2dNormActivation(\n            (0): Conv2d(960, 160, kernel_size=(1, 1), stride=(1, 1), bias=False)\n            (1): BatchNorm2d(160, eps=0.001, momentum=0.1, affine=True, track_running_stats=True)\n          )\n        )\n        (stochastic_depth): StochasticDepth(p=0.12000000000000002, mode=row)\n      )\n    )\n    (6): Sequential(\n      (0): MBConv(\n        (block): Sequential(\n          (0): Conv2dNormActivation(\n            (0): Conv2d(160, 960, kernel_size=(1, 1), stride=(1, 1), bias=False)\n            (1): BatchNorm2d(960, eps=0.001, momentum=0.1, affine=True, track_running_stats=True)\n            (2): SiLU(inplace=True)\n          )\n          (1): Conv2dNormActivation(\n            (0): Conv2d(960, 960, kernel_size=(3, 3), stride=(2, 2), padding=(1, 1), groups=960, bias=False)\n            (1): BatchNorm2d(960, eps=0.001, momentum=0.1, affine=True, track_running_stats=True)\n            (2): SiLU(inplace=True)\n          )\n          (2): SqueezeExcitation(\n            (avgpool): AdaptiveAvgPool2d(output_size=1)\n            (fc1): Conv2d(960, 40, kernel_size=(1, 1), stride=(1, 1))\n            (fc2): Conv2d(40, 960, kernel_size=(1, 1), stride=(1, 1))\n            (activation): SiLU(inplace=True)\n            (scale_activation): Sigmoid()\n          )\n          (3): Conv2dNormActivation(\n            (0): Conv2d(960, 256, kernel_size=(1, 1), stride=(1, 1), bias=False)\n            (1): BatchNorm2d(256, eps=0.001, momentum=0.1, affine=True, track_running_stats=True)\n          )\n        )\n        (stochastic_depth): StochasticDepth(p=0.125, mode=row)\n      )\n      (1): MBConv(\n        (block): Sequential(\n          (0): Conv2dNormActivation(\n            (0): Conv2d(256, 1536, kernel_size=(1, 1), stride=(1, 1), bias=False)\n            (1): BatchNorm2d(1536, eps=0.001, momentum=0.1, affine=True, track_running_stats=True)\n            (2): SiLU(inplace=True)\n          )\n          (1): Conv2dNormActivation(\n            (0): Conv2d(1536, 1536, kernel_size=(3, 3), stride=(1, 1), padding=(1, 1), groups=1536, bias=False)\n            (1): BatchNorm2d(1536, eps=0.001, momentum=0.1, affine=True, track_running_stats=True)\n            (2): SiLU(inplace=True)\n          )\n          (2): SqueezeExcitation(\n            (avgpool): AdaptiveAvgPool2d(output_size=1)\n            (fc1): Conv2d(1536, 64, kernel_size=(1, 1), stride=(1, 1))\n            (fc2): Conv2d(64, 1536, kernel_size=(1, 1), stride=(1, 1))\n            (activation): SiLU(inplace=True)\n            (scale_activation): Sigmoid()\n          )\n          (3): Conv2dNormActivation(\n            (0): Conv2d(1536, 256, kernel_size=(1, 1), stride=(1, 1), bias=False)\n            (1): BatchNorm2d(256, eps=0.001, momentum=0.1, affine=True, track_running_stats=True)\n          )\n        )\n        (stochastic_depth): StochasticDepth(p=0.13, mode=row)\n      )\n      (2): MBConv(\n        (block): Sequential(\n          (0): Conv2dNormActivation(\n            (0): Conv2d(256, 1536, kernel_size=(1, 1), stride=(1, 1), bias=False)\n            (1): BatchNorm2d(1536, eps=0.001, momentum=0.1, affine=True, track_running_stats=True)\n            (2): SiLU(inplace=True)\n          )\n          (1): Conv2dNormActivation(\n            (0): Conv2d(1536, 1536, kernel_size=(3, 3), stride=(1, 1), padding=(1, 1), groups=1536, bias=False)\n            (1): BatchNorm2d(1536, eps=0.001, momentum=0.1, affine=True, track_running_stats=True)\n            (2): SiLU(inplace=True)\n          )\n          (2): SqueezeExcitation(\n            (avgpool): AdaptiveAvgPool2d(output_size=1)\n            (fc1): Conv2d(1536, 64, kernel_size=(1, 1), stride=(1, 1))\n            (fc2): Conv2d(64, 1536, kernel_size=(1, 1), stride=(1, 1))\n            (activation): SiLU(inplace=True)\n            (scale_activation): Sigmoid()\n          )\n          (3): Conv2dNormActivation(\n            (0): Conv2d(1536, 256, kernel_size=(1, 1), stride=(1, 1), bias=False)\n            (1): BatchNorm2d(256, eps=0.001, momentum=0.1, affine=True, track_running_stats=True)\n          )\n        )\n        (stochastic_depth): StochasticDepth(p=0.135, mode=row)\n      )\n      (3): MBConv(\n        (block): Sequential(\n          (0): Conv2dNormActivation(\n            (0): Conv2d(256, 1536, kernel_size=(1, 1), stride=(1, 1), bias=False)\n            (1): BatchNorm2d(1536, eps=0.001, momentum=0.1, affine=True, track_running_stats=True)\n            (2): SiLU(inplace=True)\n          )\n          (1): Conv2dNormActivation(\n            (0): Conv2d(1536, 1536, kernel_size=(3, 3), stride=(1, 1), padding=(1, 1), groups=1536, bias=False)\n            (1): BatchNorm2d(1536, eps=0.001, momentum=0.1, affine=True, track_running_stats=True)\n            (2): SiLU(inplace=True)\n          )\n          (2): SqueezeExcitation(\n            (avgpool): AdaptiveAvgPool2d(output_size=1)\n            (fc1): Conv2d(1536, 64, kernel_size=(1, 1), stride=(1, 1))\n            (fc2): Conv2d(64, 1536, kernel_size=(1, 1), stride=(1, 1))\n            (activation): SiLU(inplace=True)\n            (scale_activation): Sigmoid()\n          )\n          (3): Conv2dNormActivation(\n            (0): Conv2d(1536, 256, kernel_size=(1, 1), stride=(1, 1), bias=False)\n            (1): BatchNorm2d(256, eps=0.001, momentum=0.1, affine=True, track_running_stats=True)\n          )\n        )\n        (stochastic_depth): StochasticDepth(p=0.14, mode=row)\n      )\n      (4): MBConv(\n        (block): Sequential(\n          (0): Conv2dNormActivation(\n            (0): Conv2d(256, 1536, kernel_size=(1, 1), stride=(1, 1), bias=False)\n            (1): BatchNorm2d(1536, eps=0.001, momentum=0.1, affine=True, track_running_stats=True)\n            (2): SiLU(inplace=True)\n          )\n          (1): Conv2dNormActivation(\n            (0): Conv2d(1536, 1536, kernel_size=(3, 3), stride=(1, 1), padding=(1, 1), groups=1536, bias=False)\n            (1): BatchNorm2d(1536, eps=0.001, momentum=0.1, affine=True, track_running_stats=True)\n            (2): SiLU(inplace=True)\n          )\n          (2): SqueezeExcitation(\n            (avgpool): AdaptiveAvgPool2d(output_size=1)\n            (fc1): Conv2d(1536, 64, kernel_size=(1, 1), stride=(1, 1))\n            (fc2): Conv2d(64, 1536, kernel_size=(1, 1), stride=(1, 1))\n            (activation): SiLU(inplace=True)\n            (scale_activation): Sigmoid()\n          )\n          (3): Conv2dNormActivation(\n            (0): Conv2d(1536, 256, kernel_size=(1, 1), stride=(1, 1), bias=False)\n            (1): BatchNorm2d(256, eps=0.001, momentum=0.1, affine=True, track_running_stats=True)\n          )\n        )\n        (stochastic_depth): StochasticDepth(p=0.14500000000000002, mode=row)\n      )\n      (5): MBConv(\n        (block): Sequential(\n          (0): Conv2dNormActivation(\n            (0): Conv2d(256, 1536, kernel_size=(1, 1), stride=(1, 1), bias=False)\n            (1): BatchNorm2d(1536, eps=0.001, momentum=0.1, affine=True, track_running_stats=True)\n            (2): SiLU(inplace=True)\n          )\n          (1): Conv2dNormActivation(\n            (0): Conv2d(1536, 1536, kernel_size=(3, 3), stride=(1, 1), padding=(1, 1), groups=1536, bias=False)\n            (1): BatchNorm2d(1536, eps=0.001, momentum=0.1, affine=True, track_running_stats=True)\n            (2): SiLU(inplace=True)\n          )\n          (2): SqueezeExcitation(\n            (avgpool): AdaptiveAvgPool2d(output_size=1)\n            (fc1): Conv2d(1536, 64, kernel_size=(1, 1), stride=(1, 1))\n            (fc2): Conv2d(64, 1536, kernel_size=(1, 1), stride=(1, 1))\n            (activation): SiLU(inplace=True)\n            (scale_activation): Sigmoid()\n          )\n          (3): Conv2dNormActivation(\n            (0): Conv2d(1536, 256, kernel_size=(1, 1), stride=(1, 1), bias=False)\n            (1): BatchNorm2d(256, eps=0.001, momentum=0.1, affine=True, track_running_stats=True)\n          )\n        )\n        (stochastic_depth): StochasticDepth(p=0.15, mode=row)\n      )\n      (6): MBConv(\n        (block): Sequential(\n          (0): Conv2dNormActivation(\n            (0): Conv2d(256, 1536, kernel_size=(1, 1), stride=(1, 1), bias=False)\n            (1): BatchNorm2d(1536, eps=0.001, momentum=0.1, affine=True, track_running_stats=True)\n            (2): SiLU(inplace=True)\n          )\n          (1): Conv2dNormActivation(\n            (0): Conv2d(1536, 1536, kernel_size=(3, 3), stride=(1, 1), padding=(1, 1), groups=1536, bias=False)\n            (1): BatchNorm2d(1536, eps=0.001, momentum=0.1, affine=True, track_running_stats=True)\n            (2): SiLU(inplace=True)\n          )\n          (2): SqueezeExcitation(\n            (avgpool): AdaptiveAvgPool2d(output_size=1)\n            (fc1): Conv2d(1536, 64, kernel_size=(1, 1), stride=(1, 1))\n            (fc2): Conv2d(64, 1536, kernel_size=(1, 1), stride=(1, 1))\n            (activation): SiLU(inplace=True)\n            (scale_activation): Sigmoid()\n          )\n          (3): Conv2dNormActivation(\n            (0): Conv2d(1536, 256, kernel_size=(1, 1), stride=(1, 1), bias=False)\n            (1): BatchNorm2d(256, eps=0.001, momentum=0.1, affine=True, track_running_stats=True)\n          )\n        )\n        (stochastic_depth): StochasticDepth(p=0.155, mode=row)\n      )\n      (7): MBConv(\n        (block): Sequential(\n          (0): Conv2dNormActivation(\n            (0): Conv2d(256, 1536, kernel_size=(1, 1), stride=(1, 1), bias=False)\n            (1): BatchNorm2d(1536, eps=0.001, momentum=0.1, affine=True, track_running_stats=True)\n            (2): SiLU(inplace=True)\n          )\n          (1): Conv2dNormActivation(\n            (0): Conv2d(1536, 1536, kernel_size=(3, 3), stride=(1, 1), padding=(1, 1), groups=1536, bias=False)\n            (1): BatchNorm2d(1536, eps=0.001, momentum=0.1, affine=True, track_running_stats=True)\n            (2): SiLU(inplace=True)\n          )\n          (2): SqueezeExcitation(\n            (avgpool): AdaptiveAvgPool2d(output_size=1)\n            (fc1): Conv2d(1536, 64, kernel_size=(1, 1), stride=(1, 1))\n            (fc2): Conv2d(64, 1536, kernel_size=(1, 1), stride=(1, 1))\n            (activation): SiLU(inplace=True)\n            (scale_activation): Sigmoid()\n          )\n          (3): Conv2dNormActivation(\n            (0): Conv2d(1536, 256, kernel_size=(1, 1), stride=(1, 1), bias=False)\n            (1): BatchNorm2d(256, eps=0.001, momentum=0.1, affine=True, track_running_stats=True)\n          )\n        )\n        (stochastic_depth): StochasticDepth(p=0.16, mode=row)\n      )\n      (8): MBConv(\n        (block): Sequential(\n          (0): Conv2dNormActivation(\n            (0): Conv2d(256, 1536, kernel_size=(1, 1), stride=(1, 1), bias=False)\n            (1): BatchNorm2d(1536, eps=0.001, momentum=0.1, affine=True, track_running_stats=True)\n            (2): SiLU(inplace=True)\n          )\n          (1): Conv2dNormActivation(\n            (0): Conv2d(1536, 1536, kernel_size=(3, 3), stride=(1, 1), padding=(1, 1), groups=1536, bias=False)\n            (1): BatchNorm2d(1536, eps=0.001, momentum=0.1, affine=True, track_running_stats=True)\n            (2): SiLU(inplace=True)\n          )\n          (2): SqueezeExcitation(\n            (avgpool): AdaptiveAvgPool2d(output_size=1)\n            (fc1): Conv2d(1536, 64, kernel_size=(1, 1), stride=(1, 1))\n            (fc2): Conv2d(64, 1536, kernel_size=(1, 1), stride=(1, 1))\n            (activation): SiLU(inplace=True)\n            (scale_activation): Sigmoid()\n          )\n          (3): Conv2dNormActivation(\n            (0): Conv2d(1536, 256, kernel_size=(1, 1), stride=(1, 1), bias=False)\n            (1): BatchNorm2d(256, eps=0.001, momentum=0.1, affine=True, track_running_stats=True)\n          )\n        )\n        (stochastic_depth): StochasticDepth(p=0.165, mode=row)\n      )\n      (9): MBConv(\n        (block): Sequential(\n          (0): Conv2dNormActivation(\n            (0): Conv2d(256, 1536, kernel_size=(1, 1), stride=(1, 1), bias=False)\n            (1): BatchNorm2d(1536, eps=0.001, momentum=0.1, affine=True, track_running_stats=True)\n            (2): SiLU(inplace=True)\n          )\n          (1): Conv2dNormActivation(\n            (0): Conv2d(1536, 1536, kernel_size=(3, 3), stride=(1, 1), padding=(1, 1), groups=1536, bias=False)\n            (1): BatchNorm2d(1536, eps=0.001, momentum=0.1, affine=True, track_running_stats=True)\n            (2): SiLU(inplace=True)\n          )\n          (2): SqueezeExcitation(\n            (avgpool): AdaptiveAvgPool2d(output_size=1)\n            (fc1): Conv2d(1536, 64, kernel_size=(1, 1), stride=(1, 1))\n            (fc2): Conv2d(64, 1536, kernel_size=(1, 1), stride=(1, 1))\n            (activation): SiLU(inplace=True)\n            (scale_activation): Sigmoid()\n          )\n          (3): Conv2dNormActivation(\n            (0): Conv2d(1536, 256, kernel_size=(1, 1), stride=(1, 1), bias=False)\n            (1): BatchNorm2d(256, eps=0.001, momentum=0.1, affine=True, track_running_stats=True)\n          )\n        )\n        (stochastic_depth): StochasticDepth(p=0.17, mode=row)\n      )\n      (10): MBConv(\n        (block): Sequential(\n          (0): Conv2dNormActivation(\n            (0): Conv2d(256, 1536, kernel_size=(1, 1), stride=(1, 1), bias=False)\n            (1): BatchNorm2d(1536, eps=0.001, momentum=0.1, affine=True, track_running_stats=True)\n            (2): SiLU(inplace=True)\n          )\n          (1): Conv2dNormActivation(\n            (0): Conv2d(1536, 1536, kernel_size=(3, 3), stride=(1, 1), padding=(1, 1), groups=1536, bias=False)\n            (1): BatchNorm2d(1536, eps=0.001, momentum=0.1, affine=True, track_running_stats=True)\n            (2): SiLU(inplace=True)\n          )\n          (2): SqueezeExcitation(\n            (avgpool): AdaptiveAvgPool2d(output_size=1)\n            (fc1): Conv2d(1536, 64, kernel_size=(1, 1), stride=(1, 1))\n            (fc2): Conv2d(64, 1536, kernel_size=(1, 1), stride=(1, 1))\n            (activation): SiLU(inplace=True)\n            (scale_activation): Sigmoid()\n          )\n          (3): Conv2dNormActivation(\n            (0): Conv2d(1536, 256, kernel_size=(1, 1), stride=(1, 1), bias=False)\n            (1): BatchNorm2d(256, eps=0.001, momentum=0.1, affine=True, track_running_stats=True)\n          )\n        )\n        (stochastic_depth): StochasticDepth(p=0.175, mode=row)\n      )\n      (11): MBConv(\n        (block): Sequential(\n          (0): Conv2dNormActivation(\n            (0): Conv2d(256, 1536, kernel_size=(1, 1), stride=(1, 1), bias=False)\n            (1): BatchNorm2d(1536, eps=0.001, momentum=0.1, affine=True, track_running_stats=True)\n            (2): SiLU(inplace=True)\n          )\n          (1): Conv2dNormActivation(\n            (0): Conv2d(1536, 1536, kernel_size=(3, 3), stride=(1, 1), padding=(1, 1), groups=1536, bias=False)\n            (1): BatchNorm2d(1536, eps=0.001, momentum=0.1, affine=True, track_running_stats=True)\n            (2): SiLU(inplace=True)\n          )\n          (2): SqueezeExcitation(\n            (avgpool): AdaptiveAvgPool2d(output_size=1)\n            (fc1): Conv2d(1536, 64, kernel_size=(1, 1), stride=(1, 1))\n            (fc2): Conv2d(64, 1536, kernel_size=(1, 1), stride=(1, 1))\n            (activation): SiLU(inplace=True)\n            (scale_activation): Sigmoid()\n          )\n          (3): Conv2dNormActivation(\n            (0): Conv2d(1536, 256, kernel_size=(1, 1), stride=(1, 1), bias=False)\n            (1): BatchNorm2d(256, eps=0.001, momentum=0.1, affine=True, track_running_stats=True)\n          )\n        )\n        (stochastic_depth): StochasticDepth(p=0.18, mode=row)\n      )\n      (12): MBConv(\n        (block): Sequential(\n          (0): Conv2dNormActivation(\n            (0): Conv2d(256, 1536, kernel_size=(1, 1), stride=(1, 1), bias=False)\n            (1): BatchNorm2d(1536, eps=0.001, momentum=0.1, affine=True, track_running_stats=True)\n            (2): SiLU(inplace=True)\n          )\n          (1): Conv2dNormActivation(\n            (0): Conv2d(1536, 1536, kernel_size=(3, 3), stride=(1, 1), padding=(1, 1), groups=1536, bias=False)\n            (1): BatchNorm2d(1536, eps=0.001, momentum=0.1, affine=True, track_running_stats=True)\n            (2): SiLU(inplace=True)\n          )\n          (2): SqueezeExcitation(\n            (avgpool): AdaptiveAvgPool2d(output_size=1)\n            (fc1): Conv2d(1536, 64, kernel_size=(1, 1), stride=(1, 1))\n            (fc2): Conv2d(64, 1536, kernel_size=(1, 1), stride=(1, 1))\n            (activation): SiLU(inplace=True)\n            (scale_activation): Sigmoid()\n          )\n          (3): Conv2dNormActivation(\n            (0): Conv2d(1536, 256, kernel_size=(1, 1), stride=(1, 1), bias=False)\n            (1): BatchNorm2d(256, eps=0.001, momentum=0.1, affine=True, track_running_stats=True)\n          )\n        )\n        (stochastic_depth): StochasticDepth(p=0.185, mode=row)\n      )\n      (13): MBConv(\n        (block): Sequential(\n          (0): Conv2dNormActivation(\n            (0): Conv2d(256, 1536, kernel_size=(1, 1), stride=(1, 1), bias=False)\n            (1): BatchNorm2d(1536, eps=0.001, momentum=0.1, affine=True, track_running_stats=True)\n            (2): SiLU(inplace=True)\n          )\n          (1): Conv2dNormActivation(\n            (0): Conv2d(1536, 1536, kernel_size=(3, 3), stride=(1, 1), padding=(1, 1), groups=1536, bias=False)\n            (1): BatchNorm2d(1536, eps=0.001, momentum=0.1, affine=True, track_running_stats=True)\n            (2): SiLU(inplace=True)\n          )\n          (2): SqueezeExcitation(\n            (avgpool): AdaptiveAvgPool2d(output_size=1)\n            (fc1): Conv2d(1536, 64, kernel_size=(1, 1), stride=(1, 1))\n            (fc2): Conv2d(64, 1536, kernel_size=(1, 1), stride=(1, 1))\n            (activation): SiLU(inplace=True)\n            (scale_activation): Sigmoid()\n          )\n          (3): Conv2dNormActivation(\n            (0): Conv2d(1536, 256, kernel_size=(1, 1), stride=(1, 1), bias=False)\n            (1): BatchNorm2d(256, eps=0.001, momentum=0.1, affine=True, track_running_stats=True)\n          )\n        )\n        (stochastic_depth): StochasticDepth(p=0.19, mode=row)\n      )\n      (14): MBConv(\n        (block): Sequential(\n          (0): Conv2dNormActivation(\n            (0): Conv2d(256, 1536, kernel_size=(1, 1), stride=(1, 1), bias=False)\n            (1): BatchNorm2d(1536, eps=0.001, momentum=0.1, affine=True, track_running_stats=True)\n            (2): SiLU(inplace=True)\n          )\n          (1): Conv2dNormActivation(\n            (0): Conv2d(1536, 1536, kernel_size=(3, 3), stride=(1, 1), padding=(1, 1), groups=1536, bias=False)\n            (1): BatchNorm2d(1536, eps=0.001, momentum=0.1, affine=True, track_running_stats=True)\n            (2): SiLU(inplace=True)\n          )\n          (2): SqueezeExcitation(\n            (avgpool): AdaptiveAvgPool2d(output_size=1)\n            (fc1): Conv2d(1536, 64, kernel_size=(1, 1), stride=(1, 1))\n            (fc2): Conv2d(64, 1536, kernel_size=(1, 1), stride=(1, 1))\n            (activation): SiLU(inplace=True)\n            (scale_activation): Sigmoid()\n          )\n          (3): Conv2dNormActivation(\n            (0): Conv2d(1536, 256, kernel_size=(1, 1), stride=(1, 1), bias=False)\n            (1): BatchNorm2d(256, eps=0.001, momentum=0.1, affine=True, track_running_stats=True)\n          )\n        )\n        (stochastic_depth): StochasticDepth(p=0.195, mode=row)\n      )\n    )\n    (7): Conv2dNormActivation(\n      (0): Conv2d(256, 1280, kernel_size=(1, 1), stride=(1, 1), bias=False)\n      (1): BatchNorm2d(1280, eps=0.001, momentum=0.1, affine=True, track_running_stats=True)\n      (2): SiLU(inplace=True)\n    )\n  )\n  (avgpool): AdaptiveAvgPool2d(output_size=1)\n  (classifier): Sequential(\n    (0): Dropout(p=0.2, inplace=True)\n    (1): Linear(in_features=1280, out_features=2, bias=True)\n  )\n)"},"metadata":{}}],"execution_count":17},{"cell_type":"code","source":"# Loss and optimizer\ncriterion = nn.CrossEntropyLoss()\noptimizer = torch.optim.Adam(model.parameters(), lr=0.0005)\n","metadata":{"trusted":true,"execution":{"iopub.status.busy":"2025-05-25T11:58:30.084330Z","iopub.execute_input":"2025-05-25T11:58:30.084613Z","iopub.status.i
…
nput":"2025-05-25T11:46:55.692157Z","iopub.status.idle":"2025-05-25T11:47:06.093506Z","shell.execute_reply.started":"2025-05-25T11:46:55.692128Z","shell.execute_reply":"2025-05-25T11:47:06.092581Z"}},"outputs":[{"output_type":"display_data","data":{"text/plain":"model.safetensors:   0%|          | 0.00/353M [00:00<?, ?B/s]","application/vnd.jupyter.widget-view+json":{"version_major":2,"version_minor":0,"model_id":"738c90189baf43e98d34f4a4f3b84aae"}},"metadata":{}},{"execution_count":8,"output_type":"execute_result","data":{"text/plain":"SwinTransformer(\n  (patch_embed): PatchEmbed(\n    (proj): Conv2d(3, 128, kernel_size=(4, 4), stride=(4, 4))\n    (norm): LayerNorm((128,), eps=1e-05, elementwise_affine=True)\n  )\n  (layers): Sequential(\n    (0): SwinTransformerStage(\n      (downsample): Identity()\n      (blocks): Sequential(\n        (0): SwinTransformerBlock(\n          (norm1): LayerNorm((128,), eps=1e-05, elementwise_affine=True)\n          (attn): WindowAttention(\n            (qkv): Linear(in_features=128, out_features=384, bias=True)\n            (attn_drop): Dropout(p=0.0, inplace=False)\n            (proj): Linear(in_features=128, out_features=128, bias=True)\n            (proj_drop): Dropout(p=0.0, inplace=False)\n            (softmax): Softmax(dim=-1)\n          )\n          (drop_path1): Identity()\n          (norm2): LayerNorm((128,), eps=1e-05, elementwise_affine=True)\n          (mlp): Mlp(\n            (fc1): Linear(in_features=128, out_features=512, bias=True)\n            (act): GELU(approximate='none')\n            (drop1): Dropout(p=0.0, inplace=False)\n            (norm): Identity()\n            (fc2): Linear(in_features=512, out_features=128, bias=True)\n            (drop2): Dropout(p=0.0, inplace=False)\n          )\n          (drop_path2): Identity()\n        )\n        (1): SwinTransformerBlock(\n          (norm1): LayerNorm((128,), eps=1e-05, elementwise_affine=True)\n          (attn): WindowAttention(\n            (qkv): Linear(in_features=128, out_features=384, bias=True)\n            (attn_drop): Dropout(p=0.0, inplace=False)\n            (proj): Linear(in_features=128, out_features=128, bias=True)\n            (proj_drop): Dropout(p=0.0, inplace=False)\n            (softmax): Softmax(dim=-1)\n          )\n          (drop_path1): DropPath(drop_prob=0.004)\n          (norm2): LayerNorm((128,), eps=1e-05, elementwise_affine=True)\n          (mlp): Mlp(\n            (fc1): Linear(in_features=128, out_features=512, bias=True)\n            (act): GELU(approximate='none')\n            (drop1): Dropout(p=0.0, inplace=False)\n            (norm): Identity()\n            (fc2): Linear(in_features=512, out_features=128, bias=True)\n            (drop2): Dropout(p=0.0, inplace=False)\n          )\n          (drop_path2): DropPath(drop_prob=0.004)\n        )\n      )\n    )\n    (1): SwinTransformerStage(\n      (downsample): PatchMerging(\n        (norm): LayerNorm((512,), eps=1e-05, elementwise_affine=True)\n        (reduction): Linear(in_features=512, out_features=256, bias=False)\n      )\n      (blocks): Sequential(\n        (0): SwinTransformerBlock(\n          (norm1): LayerNorm((256,), eps=1e-05, elementwise_affine=True)\n          (attn): WindowAttention(\n            (qkv): Linear(in_features=256, out_features=768, bias=True)\n            (attn_drop): Dropout(p=0.0, inplace=False)\n            (proj): Linear(in_features=256, out_features=256, bias=True)\n            (proj_drop): Dropout(p=0.0, inplace=False)\n            (softmax): Softmax(dim=-1)\n          )\n          (drop_path1): DropPath(drop_prob=0.009)\n          (norm2): LayerNorm((256,), eps=1e-05, elementwise_affine=True)\n          (mlp): Mlp(\n            (fc1): Linear(in_features=256, out_features=1024, bias=True)\n            (act): GELU(approximate='none')\n            (drop1): Dropout(p=0.0, inplace=False)\n            (norm): Identity()\n            (fc2): Linear(in_features=1024, out_features=256, bias=True)\n            (drop2): Dropout(p=0.0, inplace=False)\n          )\n          (drop_path2): DropPath(drop_prob=0.009)\n        )\n        (1): SwinTransformerBlock(\n          (norm1): LayerNorm((256,), eps=1e-05, elementwise_affine=True)\n          (attn): WindowAttention(\n            (qkv): Linear(in_features=256, out_features=768, bias=True)\n            (attn_drop): Dropout(p=0.0, inplace=False)\n            (proj): Linear(in_features=256, out_features=256, bias=True)\n            (proj_drop): Dropout(p=0.0, inplace=False)\n            (softmax): Softmax(dim=-1)\n          )\n          (drop_path1): DropPath(drop_prob=0.013)\n          (norm2): LayerNorm((256,), eps=1e-05, elementwise_affine=True)\n          (mlp): Mlp(\n            (fc1): Linear(in_features=256, out_features=1024, bias=True)\n            (act): GELU(approximate='none')\n            (drop1): Dropout(p=0.0, inplace=False)\n            (norm): Identity()\n            (fc2): Linear(in_features=1024, out_features=256, bias=True)\n            (drop2): Dropout(p=0.0, inplace=False)\n          )\n          (drop_path2): DropPath(drop_prob=0.013)\n        )\n      )\n    )\n    (2): SwinTransformerStage(\n      (downsample): PatchMerging(\n        (norm): LayerNorm((1024,), eps=1e-05, elementwise_affine=True)\n        (reduction): Linear(in_features=1024, out_features=512, bias=False)\n      )\n      (blocks): Sequential(\n        (0): SwinTransformerBlock(\n          (norm1): LayerNorm((512,), eps=1e-05, elementwise_affine=True)\n          (attn): WindowAttention(\n            (qkv): Linear(in_features=512, out_features=1536, bias=True)\n            (attn_drop): Dropout(p=0.0, inplace=False)\n            (proj): Linear(in_features=512, out_features=512, bias=True)\n            (proj_drop): Dropout(p=0.0, inplace=False)\n            (softmax): Softmax(dim=-1)\n          )\n          (drop_path1): DropPath(drop_prob=0.017)\n          (norm2): LayerNorm((512,), eps=1e-05, elementwise_affine=True)\n          (mlp): Mlp(\n            (fc1): Linear(in_features=512, out_features=2048, bias=True)\n            (act): GELU(approximate='none')\n            (drop1): Dropout(p=0.0, inplace=False)\n            (norm): Identity()\n            (fc2): Linear(in_features=2048, out_features=512, bias=True)\n            (drop2): Dropout(p=0.0, inplace=False)\n          )\n          (drop_path2): DropPath(drop_prob=0.017)\n        )\n        (1): SwinTransformerBlock(\n          (norm1): LayerNorm((512,), eps=1e-05, elementwise_affine=True)\n          (attn): WindowAttention(\n            (qkv): Linear(in_features=512, out_features=1536, bias=True)\n            (attn_drop): Dropout(p=0.0, inplace=False)\n            (proj): Linear(in_features=512, out_features=512, bias=True)\n            (proj_drop): Dropout(p=0.0, inplace=False)\n            (softmax): Softmax(dim=-1)\n          )\n          (drop_path1): DropPath(drop_prob=0.022)\n          (norm2): LayerNorm((512,), eps=1e-05, elementwise_affine=True)\n          (mlp): Mlp(\n            (fc1): Linear(in_features=512, out_features=2048, bias=True)\n            (act): GELU(approximate='none')\n            (drop1): Dropout(p=0.0, inplace=False)\n            (norm): Identity()\n            (fc2): Linear(in_features=2048, out_features=512, bias=True)\n            (drop2): Dropout(p=0.0, inplace=False)\n          )\n          (drop_path2): DropPath(drop_prob=0.022)\n        )\n        (2): SwinTransformerBlock(\n          (norm1): LayerNorm((512,), eps=1e-05, elementwise_affine=True)\n          (attn): WindowAttention(\n            (qkv): Linear(in_features=512, out_features=1536, bias=True)\n            (attn_drop): Dropout(p=0.0, inplace=False)\n            (proj): Linear(in_features=512, out_features=512, bias=True)\n            (proj_drop): Dropout(p=0.0, inplace=False)\n            (softmax): Softmax(dim=-1)\n          )\n          (drop_path1): DropPath(drop_prob=0.026)\n          (norm2): LayerNorm((512,), eps=1e-05, elementwise_affine=True)\n          (mlp): Mlp(\n            (fc1): Linear(in_features=512, out_features=2048, bias=True)\n            (act): GELU(approximate='none')\n            (drop1): Dropout(p=0.0, inplace=False)\n            (norm): Identity()\n            (fc2): Linear(in_features=2048, out_features=512, bias=True)\n            (drop2): Dropout(p=0.0, inplace=False)\n          )\n          (drop_path2): DropPath(drop_prob=0.026)\n        )\n        (3): SwinTransformerBlock(\n          (norm1): LayerNorm((512,), eps=1e-05, elementwise_affine=True)\n          (attn): WindowAttention(\n            (qkv): Linear(in_features=512, out_features=1536, bias=True)\n            (attn_drop): Dropout(p=0.0, inplace=False)\n            (proj): Linear(in_features=512, out_features=512, bias=True)\n            (proj_drop): Dropout(p=0.0, inplace=False)\n            (softmax): Softmax(dim=-1)\n          )\n          (drop_path1): DropPath(drop_prob=0.030)\n          (norm2): LayerNorm((512,), eps=1e-05, elementwise_affine=True)\n          (mlp): Mlp(\n            (fc1): Linear(in_features=512, out_features=2048, bias=True)\n            (act): GELU(approximate='none')\n            (drop1): Dropout(p=0.0, inplace=False)\n            (norm): Identity()\n            (fc2): Linear(in_features=2048, out_features=512, bias=True)\n            (drop2): Dropout(p=0.0, inplace=False)\n          )\n          (drop_path2): DropPath(drop_prob=0.030)\n        )\n        (4): SwinTransformerBlock(\n          (norm1): LayerNorm((512,), eps=1e-05, elementwise_affine=True)\n          (attn): WindowAttention(\n            (qkv): Linear(in_features=512, out_features=1536, bias=True)\n            (attn_drop): Dropout(p=0.0, inplace=False)\n            (proj): Linear(in_features=512, out_features=512, bias=True)\n            (proj_drop): Dropout(p=0.0, inplace=False)\n            (softmax): Softmax(dim=-1)\n          )\n          (drop_path1): DropPath(drop_prob=0.035)\n          (norm2): LayerNorm((512,), eps=1e-05, elementwise_affine=True)\n          (mlp): Mlp(\n            (fc1): Linear(in_features=512, out_features=2048, bias=True)\n            (act): GELU(approximate='none')\n            (drop1): Dropout(p=0.0, inplace=False)\n            (norm): Identity()\n            (fc2): Linear(in_features=2048, out_features=512, bias=True)\n            (drop2): Dropout(p=0.0, inplace=False)\n          )\n          (drop_path2): DropPath(drop_prob=0.035)\n        )\n        (5): SwinTransformerBlock(\n          (norm1): LayerNorm((512,), eps=1e-05, elementwise_affine=True)\n          (attn): WindowAttention(\n            (qkv): Linear(in_features=512, out_features=1536, bias=True)\n            (attn_drop): Dropout(p=0.0, inplace=False)\n            (proj): Linear(in_features=512, out_features=512, bias=True)\n            (proj_drop): Dropout(p=0.0, inplace=False)\n            (softmax): Softmax(dim=-1)\n          )\n          (drop_path1): DropPath(drop_prob=0.039)\n          (norm2): LayerNorm((512,), eps=1e-05, elementwise_affine=True)\n          (mlp): Mlp(\n            (fc1): Linear(in_features=512, out_features=2048, bias=True)\n            (act): GELU(approximate='none')\n            (drop1): Dropout(p=0.0, inplace=False)\n            (norm): Identity()\n            (fc2): Linear(in_features=2048, out_features=512, bias=True)\n            (drop2): Dropout(p=0.0, inplace=False)\n          )\n          (drop_path2): DropPath(drop_prob=0.039)\n        )\n        (6): SwinTransformerBlock(\n          (norm1): LayerNorm((512,), eps=1e-05, elementwise_affine=True)\n          (attn): WindowAttention(\n            (qkv): Linear(in_features=512, out_features=1536, bias=True)\n            (attn_drop): Dropout(p=0.0, inplace=False)\n            (proj): Linear(in_features=512, out_features=512, bias=True)\n            (proj_drop): Dropout(p=0.0, inplace=False)\n            (softmax): Softmax(dim=-1)\n          )\n          (drop_path1): DropPath(drop_prob=0.043)\n          (norm2): LayerNorm((512,), eps=1e-05, elementwise_affine=True)\n          (mlp): Mlp(\n            (fc1): Linear(in_features=512, out_features=2048, bias=True)\n            (act): GELU(approximate='none')\n            (drop1): Dropout(p=0.0, inplace=False)\n            (norm): Identity()\n            (fc2): Linear(in_features=2048, out_features=512, bias=True)\n            (drop2): Dropout(p=0.0, inplace=False)\n          )\n          (drop_path2): DropPath(drop_prob=0.043)\n        )\n        (7): SwinTransformerBlock(\n          (norm1): LayerNorm((512,), eps=1e-05, elementwise_affine=True)\n          (attn): WindowAttention(\n            (qkv): Linear(in_features=512, out_features=1536, bias=True)\n            (attn_drop): Dropout(p=0.0, inplace=False)\n            (proj): Linear(in_features=512, out_features=512, bias=True)\n            (proj_drop): Dropout(p=0.0, inplace=False)\n            (softmax): Softmax(dim=-1)\n          )\n          (drop_path1): DropPath(drop_prob=0.048)\n          (norm2): LayerNorm((512,), eps=1e-05, elementwise_affine=True)\n          (mlp): Mlp(\n            (fc1): Linear(in_features=512, out_features=2048, bias=True)\n            (act): GELU(approximate='none')\n            (drop1): Dropout(p=0.0, inplace=False)\n            (norm): Identity()\n            (fc2): Linear(in_features=2048, out_features=512, bias=True)\n            (drop2): Dropout(p=0.0, inplace=False)\n          )\n          (drop_path2): DropPath(drop_prob=0.048)\n        )\n        (8): SwinTransformerBlock(\n          (norm1): LayerNorm((512,), eps=1e-05, elementwise_affine=True)\n          (attn): WindowAttention(\n            (qkv): Linear(in_features=512, out_features=1536, bias=True)\n            (attn_drop): Dropout(p=0.0, inplace=False)\n            (proj): Linear(in_features=512, out_features=512, bias=True)\n            (proj_drop): Dropout(p=0.0, inplace=False)\n            (softmax): Softmax(dim=-1)\n          )\n          (drop_path1): DropPath(drop_prob=0.052)\n          (norm2): LayerNorm((512,), eps=1e-05, elementwise_affine=True)\n          (mlp): Mlp(\n            (fc1): Linear(in_features=512, out_features=2048, bias=True)\n            (act): GELU(approximate='none')\n            (drop1): Dropout(p=0.0, inplace=False)\n            (norm): Identity()\n            (fc2): Linear(in_features=2048, out_features=512, bias=True)\n            (drop2): Dropout(p=0.0, inplace=False)\n          )\n          (drop_path2): DropPath(drop_prob=0.052)\n        )\n        (9): SwinTransformerBlock(\n          (norm1): LayerNorm((512,), eps=1e-05, elementwise_affine=True)\n          (attn): WindowAttention(\n            (qkv): Linear(in_features=512, out_features=1536, bias=True)\n            (attn_drop): Dropout(p=0.0, inplace=False)\n            (proj): Linear(in_features=512, out_features=512, bias=True)\n            (proj_drop): Dropout(p=0.0, inplace=False)\n            (softmax): Softmax(dim=-1)\n          )\n          (drop_path1): DropPath(drop_prob=0.057)\n          (norm2): LayerNorm((512,), eps=1e-05, elementwise_affine=True)\n          (mlp): Mlp(\n            (fc1): Linear(in_features=512, out_features=2048, bias=True)\n            (act): GELU(approximate='none')\n            (drop1): Dropout(p=0.0, inplace=False)\n            (norm): Identity()\n            (fc2): Linear(in_features=2048, out_features=512, bias=True)\n            (drop2): Dropout(p=0.0, inplace=False)\n          )\n          (drop_path2): DropPath(drop_prob=0.057)\n        )\n        (10): SwinTransformerBlock(\n          (norm1): LayerNorm((512,), eps=1e-05, elementwise_affine=True)\n          (attn): WindowAttention(\n            (qkv): Linear(in_features=512, out_features=1536, bias=True)\n            (attn_drop): Dropout(p=0.0, inplace=False)\n            (proj): Linear(in_features=512, out_features=512, bias=True)\n            (proj_drop): Dropout(p=0.0, inplace=False)\n            (softmax): Softmax(dim=-1)\n          )\n          (drop_path1): DropPath(drop_prob=0.061)\n          (norm2): LayerNorm((512,), eps=1e-05, elementwise_affine=True)\n          (mlp): Mlp(\n            (fc1): Linear(in_features=512, out_features=2048, bias=True)\n            (act): GELU(approximate='none')\n            (drop1): Dropout(p=0.0, inplace=False)\n            (norm): Identity()\n            (fc2): Linear(in_features=2048, out_features=512, bias=True)\n            (drop2): Dropout(p=0.0, inplace=False)\n          )\n          (drop_path2): DropPath(drop_prob=0.061)\n        )\n        (11): SwinTransformerBlock(\n          (norm1): LayerNorm((512,), eps=1e-05, elementwise_affine=True)\n          (attn): WindowAttention(\n            (qkv): Linear(in_features=512, out_features=1536, bias=True)\n            (attn_drop): Dropout(p=0.0, inplace=False)\n            (proj): Linear(in_features=512, out_features=512, bias=True)\n            (proj_drop): Dropout(p=0.0, inplace=False)\n            (softmax): Softmax(dim=-1)\n          )\n          (drop_path1): DropPath(drop_prob=0.065)\n          (norm2): LayerNorm((512,), eps=1e-05, elementwise_affine=True)\n          (mlp): Mlp(\n            (fc1): Linear(in_features=512, out_features=2048, bias=True)\n            (act): GELU(approximate='none')\n            (drop1): Dropout(p=0.0, inplace=False)\n            (norm): Identity()\n            (fc2): Linear(in_features=2048, out_features=512, bias=True)\n            (drop2): Dropout(p=0.0, inplace=False)\n          )\n          (drop_path2): DropPath(drop_prob=0.065)\n        )\n        (12): SwinTransformerBlock(\n          (norm1): LayerNorm((512,), eps=1e-05, elementwise_affine=True)\n          (attn): WindowAttention(\n            (qkv): Linear(in_features=512, out_features=1536, bias=True)\n            (attn_drop): Dropout(p=0.0, inplace=False)\n            (proj): Linear(in_features=512, out_features=512, bias=True)\n            (proj_drop): Dropout(p=0.0, inplace=False)\n            (softmax): Softmax(dim=-1)\n          )\n          (drop_path1): DropPath(drop_prob=0.070)\n          (norm2): LayerNorm((512,), eps=1e-05, elementwise_affine=True)\n          (mlp): Mlp(\n            (fc1): Linear(in_features=512, out_features=2048, bias=True)\n            (act): GELU(approximate='none')\n            (drop1): Dropout(p=0.0, inplace=False)\n            (norm): Identity()\n            (fc2): Linear(in_features=2048, out_features=512, bias=True)\n            (drop2): Dropout(p=0.0, inplace=False)\n          )\n          (drop_path2): DropPath(drop_prob=0.070)\n        )\n        (13): SwinTransformerBlock(\n          (norm1): LayerNorm((512,), eps=1e-05, elementwise_affine=True)\n          (attn): WindowAttention(\n            (qkv): Linear(in_features=512, out_features=1536, bias=True)\n            (attn_drop): Dropout(p=0.0, inplace=False)\n            (proj): Linear(in_features=512, out_features=512, bias=True)\n            (proj_drop): Dropout(p=0.0, inplace=False)\n            (softmax): Softmax(dim=-1)\n          )\n          (drop_path1): DropPath(drop_prob=0.074)\n          (norm2): LayerNorm((512,), eps=1e-05, elementwise_affine=True)\n          (mlp): Mlp(\n            (fc1): Linear(in_features=512, out_features=2048, bias=True)\n            (act): GELU(approximate='none')\n            (drop1): Dropout(p=0.0, inplace=False)\n            (norm): Identity()\n            (fc2): Linear(in_features=2048, out_features=512, bias=True)\n            (drop2): Dropout(p=0.0, inplace=False)\n          )\n          (drop_path2): DropPath(drop_prob=0.074)\n        )\n        (14): SwinTransformerBlock(\n          (norm1): LayerNorm((512,), eps=1e-05, elementwise_affine=True)\n          (attn): WindowAttention(\n            (qkv): Linear(in_features=512, out_features=1536, bias=True)\n            (attn_drop): Dropout(p=0.0, inplace=False)\n            (proj): Linear(in_features=512, out_features=512, bias=True)\n            (proj_drop): Dropout(p=0.0, inplace=False)\n            (softmax): Softmax(dim=-1)\n          )\n          (drop_path1): DropPath(drop_prob=0.078)\n          (norm2): LayerNorm((512,), eps=1e-05, elementwise_affine=True)\n          (mlp): Mlp(\n            (fc1): Linear(in_features=512, out_features=2048, bias=True)\n            (act): GELU(approximate='none')\n            (drop1): Dropout(p=0.0, inplace=False)\n            (norm): Identity()\n            (fc2): Linear(in_features=2048, out_features=512, bias=True)\n            (drop2): Dropout(p=0.0, inplace=False)\n          )\n          (drop_path2): DropPath(drop_prob=0.078)\n        )\n        (15): SwinTransformerBlock(\n          (norm1): LayerNorm((512,), eps=1e-05, elementwise_affine=True)\n          (attn): WindowAttention(\n            (qkv): Linear(in_features=512, out_features=1536, bias=True)\n            (attn_drop): Dropout(p=0.0, inplace=False)\n            (proj): Linear(in_features=512, out_features=512, bias=True)\n            (proj_drop): Dropout(p=0.0, inplace=False)\n            (softmax): Softmax(dim=-1)\n          )\n          (drop_path1): DropPath(drop_prob=0.083)\n          (norm2): LayerNorm((512,), eps=1e-05, elementwise_affine=True)\n          (mlp): Mlp(\n            (fc1): Linear(in_features=512, out_features=2048, bias=True)\n            (act): GELU(approximate='none')\n            (drop1): Dropout(p=0.0, inplace=False)\n            (norm): Identity()\n            (fc2): Linear(in_features=2048, out_features=512, bias=True)\n            (drop2): Dropout(p=0.0, inplace=False)\n          )\n          (drop_path2): DropPath(drop_prob=0.083)\n        )\n        (16): SwinTransformerBlock(\n          (norm1): LayerNorm((512,), eps=1e-05, elementwise_affine=True)\n          (attn): WindowAttention(\n            (qkv): Linear(in_features=512, out_features=1536, bias=True)\n            (attn_drop): Dropout(p=0.0, inplace=False)\n            (proj): Linear(in_features=512, out_features=512, bias=True)\n            (proj_drop): Dropout(p=0.0, inplace=False)\n            (softmax): Softmax(dim=-1)\n          )\n          (drop_path1): DropPath(drop_prob=0.087)\n          (norm2): LayerNorm((512,), eps=1e-05, elementwise_affine=True)\n          (mlp): Mlp(\n            (fc1): Linear(in_features=512, out_features=2048, bias=True)\n            (act): GELU(approximate='none')\n            (drop1): Dropout(p=0.0, inplace=False)\n            (norm): Identity()\n            (fc2): Linear(in_features=2048, out_features=512, bias=True)\n            (drop2): Dropout(p=0.0, inplace=False)\n          )\n          (drop_path2): DropPath(drop_prob=0.087)\n        )\n        (17): SwinTransformerBlock(\n          (norm1): LayerNorm((512,), eps=1e-05, elementwise_affine=True)\n          (attn): WindowAttention(\n            (qkv): Linear(in_features=512, out_features=1536, bias=True)\n            (attn_drop): Dropout(p=0.0, inplace=False)\n            (proj): Linear(in_features=512, out_features=512, bias=True)\n            (proj_drop): Dropout(p=0.0, inplace=False)\n            (softmax): Softmax(dim=-1)\n          )\n          (drop_path1): DropPath(drop_prob=0.091)\n          (norm2): LayerNorm((512,), eps=1e-05, elementwise_affine=True)\n          (mlp): Mlp(\n            (fc1): Linear(in_features=512, out_features=2048, bias=True)\n            (act): GELU(approximate='none')\n            (drop1): Dropout(p=0.0, inplace=False)\n            (norm): Identity()\n            (fc2): Linear(in_features=2048, out_features=512, bias=True)\n            (drop2): Dropout(p=0.0, inplace=False)\n          )\n          (drop_path2): DropPath(drop_prob=0.091)\n        )\n      )\n    )\n    (3): SwinTransformerStage(\n      (downsample): PatchMerging(\n        (norm): LayerNorm((2048,), eps=1e-05, elementwise_affine=True)\n        (reduction): Linear(in_features=2048, out_features=1024, bias=False)\n      )\n      (blocks): Sequential(\n        (0): SwinTransformerBlock(\n          (norm1): LayerNorm((1024,), eps=1e-05, elementwise_affine=True)\n          (attn): WindowAttention(\n            (qkv): Linear(in_features=1024, out_features=3072, bias=True)\n            (attn_drop): Dropout(p=0.0, inplace=False)\n            (proj): Linear(in_features=1024, out_features=1024, bias=True)\n            (proj_drop): Dropout(p=0.0, inplace=False)\n            (softmax): Softmax(dim=-1)\n          )\n          (drop_path1): DropPath(drop_prob=0.096)\n          (norm2): LayerNorm((1024,), eps=1e-05, elementwise_affine=True)\n          (mlp): Mlp(\n            (fc1): Linear(in_features=1024, out_features=4096, bias=True)\n            (act): GELU(approximate='none')\n            (drop1): Dropout(p=0.0, inplace=False)\n            (norm): Identity()\n            (fc2): Linear(in_features=4096, out_features=1024, bias=True)\n            (drop2): Dropout(p=0.0, inplace=False)\n          )\n          (drop_path2): DropPath(drop_prob=0.096)\n        )\n        (1): SwinTransformerBlock(\n          (norm1): LayerNorm((1024,), eps=1e-05, elementwise_affine=True)\n          (attn): WindowAttention(\n            (qkv): Linear(in_features=1024, out_features=3072, bias=True)\n            (attn_drop): Dropout(p=0.0, inplace=False)\n            (proj): Linear(in_features=1024, out_features=1024, bias=True)\n            (proj_drop): Dropout(p=0.0, inplace=False)\n            (softmax): Softmax(dim=-1)\n          )\n          (drop_path1): DropPath(drop_prob=0.100)\n          (norm2): LayerNorm((1024,), eps=1e-05, elementwise_affine=True)\n          (mlp): Mlp(\n            (fc1): Linear(in_features=1024, out_features=4096, bias=True)\n            (act): GELU(approximate='none')\n            (drop1): Dropout(p=0.0, inplace=False)\n            (norm): Identity()\n            (fc2): Linear(in_features=4096, out_features=1024, bias=True)\n            (drop2): Dropout(p=0.0, inplace=False)\n          )\n          (drop_path2): DropPath(drop_prob=0.100)\n        )\n      )\n    )\n  )\n  (norm): LayerNorm((1024,), eps=1e-05, elementwise_affine=True)\n  (head): ClassifierHead(\n    (global_pool): SelectAdaptivePool2d(pool_type=avg, flatten=Identity())\n    (drop): Dropout(p=0.0, inplace=False)\n    (fc): Linear(in_features=1024, out_features=2, bias=True)\n    (flatten): Identity()\n  )\n)"},"metadata":{}}],"execution_count":8},{"cell_type":"markdown","source":"**ConvNeXt**","metadata":{}},{"cell_type":"code","source":"model_convnext = timm.create_model(\"convnext_base\", pretrained=True, num_classes=2)\nmodel_convnext.to(device)\n","metadata":{"trusted":true,"execution":{"iopub.status.busy":"2025-05-25T
…
,"iopub.execute_input":"2025-05-25T11:47:06.095077Z","iopub.status.idle":"2025-05-25T11:47:13.333026Z","shell.execute_reply.started":"2025-05-25T11:47:06.095061Z","shell.execute_reply":"2025-05-25T11:47:13.332198Z"}},"outputs":[{"output_type":"display_data","data":{"text/plain":"model.safetensors:   0%|          | 0.00/354M [00:00<?, ?B/s]","application/vnd.jupyter.widget-view+json":{"version_major":2,"version_minor":0,"model_id":"348f383a169a482cb2bc7caf2123a2dd"}},"metadata":{}},{"execution_count":9,"output_type":"execute_result","data":{"text/plain":"ConvNeXt(\n  (stem): Sequential(\n    (0): Conv2d(3, 128, kernel_size=(4, 4), stride=(4, 4))\n    (1): LayerNorm2d((128,), eps=1e-06, elementwise_affine=True)\n  )\n  (stages): Sequential(\n    (0): ConvNeXtStage(\n      (downsample): Identity()\n      (blocks): Sequential(\n        (0): ConvNeXtBlock(\n          (conv_dw): Conv2d(128, 128, kernel_size=(7, 7), stride=(1, 1), padding=(3, 3), groups=128)\n          (norm): LayerNorm((128,), eps=1e-06, elementwise_affine=True)\n          (mlp): Mlp(\n            (fc1): Linear(in_features=128, out_features=512, bias=True)\n            (act): GELU()\n            (drop1): Dropout(p=0.0, inplace=False)\n            (norm): Identity()\n            (fc2): Linear(in_features=512, out_features=128, bias=True)\n            (drop2): Dropout(p=0.0, inplace=False)\n          )\n          (shortcut): Identity()\n          (drop_path): Identity()\n        )\n        (1): ConvNeXtBlock(\n          (conv_dw): Conv2d(128, 128, kernel_size=(7, 7), stride=(1, 1), padding=(3, 3), groups=128)\n          (norm): LayerNorm((128,), eps=1e-06, elementwise_affine=True)\n          (mlp): Mlp(\n            (fc1): Linear(in_features=128, out_features=512, bias=True)\n            (act): GELU()\n            (drop1): Dropout(p=0.0, inplace=False)\n            (norm): Identity()\n            (fc2): Linear(in_features=512, out_features=128, bias=True)\n            (drop2): Dropout(p=0.0, inplace=False)\n          )\n          (shortcut): Identity()\n          (drop_path): Identity()\n        )\n        (2): ConvNeXtBlock(\n          (conv_dw): Conv2d(128, 128, kernel_size=(7, 7), stride=(1, 1), padding=(3, 3), groups=128)\n          (norm): LayerNorm((128,), eps=1e-06, elementwise_affine=True)\n          (mlp): Mlp(\n            (fc1): Linear(in_features=128, out_features=512, bias=True)\n            (act): GELU()\n            (drop1): Dropout(p=0.0, inplace=False)\n            (norm): Identity()\n            (fc2): Linear(in_features=512, out_features=128, bias=True)\n            (drop2): Dropout(p=0.0, inplace=False)\n          )\n          (shortcut): Identity()\n          (drop_path): Identity()\n        )\n      )\n    )\n    (1): ConvNeXtStage(\n      (downsample): Sequential(\n        (0): LayerNorm2d((128,), eps=1e-06, elementwise_affine=True)\n        (1): Conv2d(128, 256, kernel_size=(2, 2), stride=(2, 2))\n      )\n      (blocks): Sequential(\n        (0): ConvNeXtBlock(\n          (conv_dw): Conv2d(256, 256, kernel_size=(7, 7), stride=(1, 1), padding=(3, 3), groups=256)\n          (norm): LayerNorm((256,), eps=1e-06, elementwise_affine=True)\n          (mlp): Mlp(\n            (fc1): Linear(in_features=256, out_features=1024, bias=True)\n            (act): GELU()\n            (drop1): Dropout(p=0.0, inplace=False)\n            (norm): Identity()\n            (fc2): Linear(in_features=1024, out_features=256, bias=True)\n            (drop2): Dropout(p=0.0, inplace=False)\n          )\n          (shortcut): Identity()\n          (drop_path): Identity()\n        )\n        (1): ConvNeXtBlock(\n          (conv_dw): Conv2d(256, 256, kernel_size=(7, 7), stride=(1, 1), padding=(3, 3), groups=256)\n          (norm): LayerNorm((256,), eps=1e-06, elementwise_affine=True)\n          (mlp): Mlp(\n            (fc1): Linear(in_features=256, out_features=1024, bias=True)\n            (act): GELU()\n            (drop1): Dropout(p=0.0, inplace=False)\n            (norm): Identity()\n            (fc2): Linear(in_features=1024, out_features=256, bias=True)\n            (drop2): Dropout(p=0.0, inplace=False)\n          )\n          (shortcut): Identity()\n          (drop_path): Identity()\n        )\n        (2): ConvNeXtBlock(\n          (conv_dw): Conv2d(256, 256, kernel_size=(7, 7), stride=(1, 1), padding=(3, 3), groups=256)\n          (norm): LayerNorm((256,), eps=1e-06, elementwise_affine=True)\n          (mlp): Mlp(\n            (fc1): Linear(in_features=256, out_features=1024, bias=True)\n            (act): GELU()\n            (drop1): Dropout(p=0.0, inplace=False)\n            (norm): Identity()\n            (fc2): Linear(in_features=1024, out_features=256, bias=True)\n            (drop2): Dropout(p=0.0, inplace=False)\n          )\n          (shortcut): Identity()\n          (drop_path): Identity()\n        )\n      )\n    )\n    (2): ConvNeXtStage(\n      (downsample): Sequential(\n        (0): LayerNorm2d((256,), eps=1e-06, elementwise_affine=True)\n        (1): Conv2d(256, 512, kernel_size=(2, 2), stride=(2, 2))\n      )\n      (blocks): Sequential(\n        (0): ConvNeXtBlock(\n          (conv_dw): Conv2d(512, 512, kernel_size=(7, 7), stride=(1, 1), padding=(3, 3), groups=512)\n          (norm): LayerNorm((512,), eps=1e-06, elementwise_affine=True)\n          (mlp): Mlp(\n            (fc1): Linear(in_features=512, out_features=2048, bias=True)\n            (act): GELU()\n            (drop1): Dropout(p=0.0, inplace=False)\n            (norm): Identity()\n            (fc2): Linear(in_features=2048, out_features=512, bias=True)\n            (drop2): Dropout(p=0.0, inplace=False)\n          )\n          (shortcut): Identity()\n          (drop_path): Identity()\n        )\n        (1): ConvNeXtBlock(\n          (conv_dw): Conv2d(512, 512, kernel_size=(7, 7), stride=(1, 1), padding=(3, 3), groups=512)\n          (norm): LayerNorm((512,), eps=1e-06, elementwise_affine=True)\n          (mlp): Mlp(\n            (fc1): Linear(in_features=512, out_features=2048, bias=True)\n            (act): GELU()\n            (drop1): Dropout(p=0.0, inplace=False)\n            (norm): Identity()\n            (fc2): Linear(in_features=2048, out_features=512, bias=True)\n            (drop2): Dropout(p=0.0, inplace=False)\n          )\n          (shortcut): Identity()\n          (drop_path): Identity()\n        )\n        (2): ConvNeXtBlock(\n          (conv_dw): Conv2d(512, 512, kernel_size=(7, 7), stride=(1, 1), padding=(3, 3), groups=512)\n          (norm): LayerNorm((512,), eps=1e-06, elementwise_affine=True)\n          (mlp): Mlp(\n            (fc1): Linear(in_features=512, out_features=2048, bias=True)\n            (act): GELU()\n            (drop1): Dropout(p=0.0, inplace=False)\n            (norm): Identity()\n            (fc2): Linear(in_features=2048, out_features=512, bias=True)\n            (drop2): Dropout(p=0.0, inplace=False)\n          )\n          (shortcut): Identity()\n          (drop_path): Identity()\n        )\n        (3): ConvNeXtBlock(\n          (conv_dw): Conv2d(512, 512, kernel_size=(7, 7), stride=(1, 1), padding=(3, 3), groups=512)\n          (norm): LayerNorm((512,), eps=1e-06, elementwise_affine=True)\n          (mlp): Mlp(\n            (fc1): Linear(in_features=512, out_features=2048, bias=True)\n            (act): GELU()\n            (drop1): Dropout(p=0.0, inplace=False)\n            (norm): Identity()\n            (fc2): Linear(in_features=2048, out_features=512, bias=True)\n            (drop2): Dropout(p=0.0, inplace=False)\n          )\n          (shortcut): Identity()\n          (drop_path): Identity()\n        )\n        (4): ConvNeXtBlock(\n          (conv_dw): Conv2d(512, 512, kernel_size=(7, 7), stride=(1, 1), padding=(3, 3), groups=512)\n          (norm): LayerNorm((512,), eps=1e-06, elementwise_affine=True)\n          (mlp): Mlp(\n            (fc1): Linear(in_features=512, out_features=2048, bias=True)\n            (act): GELU()\n            (drop1): Dropout(p=0.0, inplace=False)\n            (norm): Identity()\n            (fc2): Linear(in_features=2048, out_features=512, bias=True)\n            (drop2): Dropout(p=0.0, inplace=False)\n          )\n          (shortcut): Identity()\n          (drop_path): Identity()\n        )\n        (5): ConvNeXtBlock(\n          (conv_dw): Conv2d(512, 512, kernel_size=(7, 7), stride=(1, 1), padding=(3, 3), groups=512)\n          (norm): LayerNorm((512,), eps=1e-06, elementwise_affine=True)\n          (mlp): Mlp(\n            (fc1): Linear(in_features=512, out_features=2048, bias=True)\n            (act): GELU()\n            (drop1): Dropout(p=0.0, inplace=False)\n            (norm): Identity()\n            (fc2): Linear(in_features=2048, out_features=512, bias=True)\n            (drop2): Dropout(p=0.0, inplace=False)\n          )\n          (shortcut): Identity()\n          (drop_path): Identity()\n        )\n        (6): ConvNeXtBlock(\n          (conv_dw): Conv2d(512, 512, kernel_size=(7, 7), stride=(1, 1), padding=(3, 3), groups=512)\n          (norm): LayerNorm((512,), eps=1e-06, elementwise_affine=True)\n          (mlp): Mlp(\n            (fc1): Linear(in_features=512, out_features=2048, bias=True)\n            (act): GELU()\n            (drop1): Dropout(p=0.0, inplace=False)\n            (norm): Identity()\n            (fc2): Linear(in_features=2048, out_features=512, bias=True)\n            (drop2): Dropout(p=0.0, inplace=False)\n          )\n          (shortcut): Identity()\n          (drop_path): Identity()\n        )\n        (7): ConvNeXtBlock(\n          (conv_dw): Conv2d(512, 512, kernel_size=(7, 7), stride=(1, 1), padding=(3, 3), groups=512)\n          (norm): LayerNorm((512,), eps=1e-06, elementwise_affine=True)\n          (mlp): Mlp(\n            (fc1): Linear(in_features=512, out_features=2048, bias=True)\n            (act): GELU()\n            (drop1): Dropout(p=0.0, inplace=False)\n            (norm): Identity()\n            (fc2): Linear(in_features=2048, out_features=512, bias=True)\n            (drop2): Dropout(p=0.0, inplace=False)\n          )\n          (shortcut): Identity()\n          (drop_path): Identity()\n        )\n        (8): ConvNeXtBlock(\n          (conv_dw): Conv2d(512, 512, kernel_size=(7, 7), stride=(1, 1), padding=(3, 3), groups=512)\n          (norm): LayerNorm((512,), eps=1e-06, elementwise_affine=True)\n          (mlp): Mlp(\n            (fc1): Linear(in_features=512, out_features=2048, bias=True)\n            (act): GELU()\n            (drop1): Dropout(p=0.0, inplace=False)\n            (norm): Identity()\n            (fc2): Linear(in_features=2048, out_features=512, bias=True)\n            (drop2): Dropout(p=0.0, inplace=False)\n          )\n          (shortcut): Identity()\n          (drop_path): Identity()\n        )\n        (9): ConvNeXtBlock(\n          (conv_dw): Conv2d(512, 512, kernel_size=(7, 7), stride=(1, 1), padding=(3, 3), groups=512)\n          (norm): LayerNorm((512,), eps=1e-06, elementwise_affine=True)\n          (mlp): Mlp(\n            (fc1): Linear(in_features=512, out_features=2048, bias=True)\n            (act): GELU()\n            (drop1): Dropout(p=0.0, inplace=False)\n            (norm): Identity()\n            (fc2): Linear(in_features=2048, out_features=512, bias=True)\n            (drop2): Dropout(p=0.0, inplace=False)\n          )\n          (shortcut): Identity()\n          (drop_path): Identity()\n        )\n        (10): ConvNeXtBlock(\n          (conv_dw): Conv2d(512, 512, kernel_size=(7, 7), stride=(1, 1), padding=(3, 3), groups=512)\n          (norm): LayerNorm((512,), eps=1e-06, elementwise_affine=True)\n          (mlp): Mlp(\n            (fc1): Linear(in_features=512, out_features=2048, bias=True)\n            (act): GELU()\n            (drop1): Dropout(p=0.0, inplace=False)\n            (norm): Identity()\n            (fc2): Linear(in_features=2048, out_features=512, bias=True)\n            (drop2): Dropout(p=0.0, inplace=False)\n          )\n          (shortcut): Identity()\n          (drop_path): Identity()\n        )\n        (11): ConvNeXtBlock(\n          (conv_dw): Conv2d(512, 512, kernel_size=(7, 7), stride=(1, 1), padding=(3, 3), groups=512)\n          (norm): LayerNorm((512,), eps=1e-06, elementwise_affine=True)\n          (mlp): Mlp(\n            (fc1): Linear(in_features=512, out_features=2048, bias=True)\n            (act): GELU()\n            (drop1): Dropout(p=0.0, inplace=False)\n            (norm): Identity()\n            (fc2): Linear(in_features=2048, out_features=512, bias=True)\n            (drop2): Dropout(p=0.0, inplace=False)\n          )\n          (shortcut): Identity()\n          (drop_path): Identity()\n        )\n        (12): ConvNeXtBlock(\n          (conv_dw): Conv2d(512, 512, kernel_size=(7, 7), stride=(1, 1), padding=(3, 3), groups=512)\n          (norm): LayerNorm((512,), eps=1e-06, elementwise_affine=True)\n          (mlp): Mlp(\n            (fc1): Linear(in_features=512, out_features=2048, bias=True)\n            (act): GELU()\n            (drop1): Dropout(p=0.0, inplace=False)\n            (norm): Identity()\n            (fc2): Linear(in_features=2048, out_features=512, bias=True)\n            (drop2): Dropout(p=0.0, inplace=False)\n          )\n          (shortcut): Identity()\n          (drop_path): Identity()\n        )\n        (13): ConvNeXtBlock(\n          (conv_dw): Conv2d(512, 512, kernel_size=(7, 7), stride=(1, 1), padding=(3, 3), groups=512)\n          (norm): LayerNorm((512,), eps=1e-06, elementwise_affine=True)\n          (mlp): Mlp(\n            (fc1): Linear(in_features=512, out_features=2048, bias=True)\n            (act): GELU()\n            (drop1): Dropout(p=0.0, inplace=False)\n            (norm): Identity()\n            (fc2): Linear(in_features=2048, out_features=512, bias=True)\n            (drop2): Dropout(p=0.0, inplace=False)\n          )\n          (shortcut): Identity()\n          (drop_path): Identity()\n        )\n        (14): ConvNeXtBlock(\n          (conv_dw): Conv2d(512, 512, kernel_size=(7, 7), stride=(1, 1), padding=(3, 3), groups=512)\n          (norm): LayerNorm((512,), eps=1e-06, elementwise_affine=True)\n          (mlp): Mlp(\n            (fc1): Linear(in_features=512, out_features=2048, bias=True)\n            (act): GELU()\n            (drop1): Dropout(p=0.0, inplace=False)\n            (norm): Identity()\n            (fc2): Linear(in_features=2048, out_features=512, bias=True)\n            (drop2): Dropout(p=0.0, inplace=False)\n          )\n          (shortcut): Identity()\n          (drop_path): Identity()\n        )\n        (15): ConvNeXtBlock(\n          (conv_dw): Conv2d(512, 512, kernel_size=(7, 7), stride=(1, 1), padding=(3, 3), groups=512)\n          (norm): LayerNorm((512,), eps=1e-06, elementwise_affine=True)\n          (mlp): Mlp(\n            (fc1): Linear(in_features=512, out_features=2048, bias=True)\n            (act): GELU()\n            (drop1): Dropout(p=0.0, inplace=False)\n            (norm): Identity()\n            (fc2): Linear(in_features=2048, out_features=512, bias=True)\n            (drop2): Dropout(p=0.0, inplace=False)\n          )\n          (shortcut): Identity()\n          (drop_path): Identity()\n        )\n        (16): ConvNeXtBlock(\n          (conv_dw): Conv2d(512, 512, kernel_size=(7, 7), stride=(1, 1), padding=(3, 3), groups=512)\n          (norm): LayerNorm((512,), eps=1e-06, elementwise_affine=True)\n          (mlp): Mlp(\n            (fc1): Linear(in_features=512, out_features=2048, bias=True)\n            (act): GELU()\n            (drop1): Dropout(p=0.0, inplace=False)\n            (norm): Identity()\n            (fc2): Linear(in_features=2048, out_features=512, bias=True)\n            (drop2): Dropout(p=0.0, inplace=False)\n          )\n          (shortcut): Identity()\n          (drop_path): Identity()\n        )\n        (17): ConvNeXtBlock(\n          (conv_dw): Conv2d(512, 512, kernel_size=(7, 7), stride=(1, 1), padding=(3, 3), groups=512)\n          (norm): LayerNorm((512,), eps=1e-06, elementwise_affine=True)\n          (mlp): Mlp(\n            (fc1): Linear(in_features=512, out_features=2048, bias=True)\n            (act): GELU()\n            (drop1): Dropout(p=0.0, inplace=False)\n            (norm): Identity()\n            (fc2): Linear(in_features=2048, out_features=512, bias=True)\n            (drop2): Dropout(p=0.0, inplace=False)\n          )\n          (shortcut): Identity()\n          (drop_path): Identity()\n        )\n        (18): ConvNeXtBlock(\n          (conv_dw): Conv2d(512, 512, kernel_size=(7, 7), stride=(1, 1), padding=(3, 3), groups=512)\n          (norm): LayerNorm((512,), eps=1e-06, elementwise_affine=True)\n          (mlp): Mlp(\n            (fc1): Linear(in_features=512, out_features=2048, bias=True)\n            (act): GELU()\n            (drop1): Dropout(p=0.0, inplace=False)\n            (norm): Identity()\n            (fc2): Linear(in_features=2048, out_features=512, bias=True)\n            (drop2): Dropout(p=0.0, inplace=False)\n          )\n          (shortcut): Identity()\n          (drop_path): Identity()\n        )\n        (19): ConvNeXtBlock(\n          (conv_dw): Conv2d(512, 512, kernel_size=(7, 7), stride=(1, 1), padding=(3, 3), groups=512)\n          (norm): LayerNorm((512,), eps=1e-06, elementwise_affine=True)\n          (mlp): Mlp(\n            (fc1): Linear(in_features=512, out_features=2048, bias=True)\n            (act): GELU()\n            (drop1): Dropout(p=0.0, inplace=False)\n            (norm): Identity()\n            (fc2): Linear(in_features=2048, out_features=512, bias=True)\n            (drop2): Dropout(p=0.0, inplace=False)\n          )\n          (shortcut): Identity()\n          (drop_path): Identity()\n        )\n        (20): ConvNeXtBlock(\n          (conv_dw): Conv2d(512, 512, kernel_size=(7, 7), stride=(1, 1), padding=(3, 3), groups=512)\n          (norm): LayerNorm((512,), eps=1e-06, elementwise_affine=True)\n          (mlp): Mlp(\n            (fc1): Linear(in_features=512, out_features=2048, bias=True)\n            (act): GELU()\n            (drop1): Dropout(p=0.0, inplace=False)\n            (norm): Identity()\n            (fc2): Linear(in_features=2048, out_features=512, bias=True)\n            (drop2): Dropout(p=0.0, inplace=False)\n          )\n          (shortcut): Identity()\n          (drop_path): Identity()\n        )\n        (21): ConvNeXtBlock(\n          (conv_dw): Conv2d(512, 512, kernel_size=(7, 7), stride=(1, 1), padding=(3, 3), groups=512)\n          (norm): LayerNorm((512,), eps=1e-06, elementwise_affine=True)\n          (mlp): Mlp(\n            (fc1): Linear(in_features=512, out_features=2048, bias=True)\n            (act): GELU()\n            (drop1): Dropout(p=0.0, inplace=False)\n            (norm): Identity()\n            (fc2): Linear(in_features=2048, out_features=512, bias=True)\n            (drop2): Dropout(p=0.0, inplace=False)\n          )\n          (shortcut): Identity()\n          (drop_path): Identity()\n        )\n        (22): ConvNeXtBlock(\n          (conv_dw): Conv2d(512, 512, kernel_size=(7, 7), stride=(1, 1), padding=(3, 3), groups=512)\n          (norm): LayerNorm((512,), eps=1e-06, elementwise_affine=True)\n          (mlp): Mlp(\n            (fc1): Linear(in_features=512, out_features=2048, bias=True)\n            (act): GELU()\n            (drop1): Dropout(p=0.0, inplace=False)\n            (norm): Identity()\n            (fc2): Linear(in_features=2048, out_features=512, bias=True)\n            (drop2): Dropout(p=0.0, inplace=False)\n          )\n          (shortcut): Identity()\n          (drop_path): Identity()\n        )\n        (23): ConvNeXtBlock(\n          (conv_dw): Conv2d(512, 512, kernel_size=(7, 7), stride=(1, 1), padding=(3, 3), groups=512)\n          (norm): LayerNorm((512,), eps=1e-06, elementwise_affine=True)\n          (mlp): Mlp(\n            (fc1): Linear(in_features=512, out_features=2048, bias=True)\n            (act): GELU()\n            (drop1): Dropout(p=0.0, inplace=False)\n            (norm): Identity()\n            (fc2): Linear(in_features=2048, out_features=512, bias=True)\n            (drop2): Dropout(p=0.0, inplace=False)\n          )\n          (shortcut): Identity()\n          (drop_path): Identity()\n        )\n        (24): ConvNeXtBlock(\n          (conv_dw): Conv2d(512, 512, kernel_size=(7, 7), stride=(1, 1), padding=(3, 3), groups=512)\n          (norm): LayerNorm((512,), eps=1e-06, elementwise_affine=True)\n          (mlp): Mlp(\n            (fc1): Linear(in_features=512, out_features=2048, bias=True)\n            (act): GELU()\n            (drop1): Dropout(p=0.0, inplace=False)\n            (norm): Identity()\n            (fc2): Linear(in_features=2048, out_features=512, bias=True)\n            (drop2): Dropout(p=0.0, inplace=False)\n          )\n          (shortcut): Identity()\n          (drop_path): Identity()\n        )\n        (25): ConvNeXtBlock(\n          (conv_dw): Conv2d(512, 512, kernel_size=(7, 7), stride=(1, 1), padding=(3, 3), groups=512)\n          (norm): LayerNorm((512,), eps=1e-06, elementwise_affine=True)\n          (mlp): Mlp(\n            (fc1): Linear(in_features=512, out_features=2048, bias=True)\n            (act): GELU()\n            (drop1): Dropout(p=0.0, inplace=False)\n            (norm): Identity()\n            (fc2): Linear(in_features=2048, out_features=512, bias=True)\n            (drop2): Dropout(p=0.0, inplace=False)\n          )\n          (shortcut): Identity()\n          (drop_path): Identity()\n        )\n        (26): ConvNeXtBlock(\n          (conv_dw): Conv2d(512, 512, kernel_size=(7, 7), stride=(1, 1), padding=(3, 3), groups=512)\n          (norm): LayerNorm((512,), eps=1e-06, elementwise_affine=True)\n          (mlp): Mlp(\n            (fc1): Linear(in_features=512, out_features=2048, bias=True)\n            (act): GELU()\n            (drop1): Dropout(p=0.0, inplace=False)\n            (norm): Identity()\n            (fc2): Linear(in_features=2048, out_features=512, bias=True)\n            (drop2): Dropout(p=0.0, inplace=False)\n          )\n          (shortcut): Identity()\n          (drop_path): Identity()\n        )\n      )\n    )\n    (3): ConvNeXtStage(\n      (downsample): Sequential(\n        (0): LayerNorm2d((512,), eps=1e-06, elementwise_affine=True)\n        (1): Conv2d(512, 1024, kernel_size=(2, 2), stride=(2, 2))\n      )\n      (blocks): Sequential(\n        (0): ConvNeXtBlock(\n          (conv_dw): Conv2d(1024, 1024, kernel_size=(7, 7), stride=(1, 1), padding=(3, 3), groups=1024)\n          (norm): LayerNorm((1024,), eps=1e-06, elementwise_affine=True)\n          (mlp): Mlp(\n            (fc1): Linear(in_features=1024, out_features=4096, bias=True)\n            (act): GELU()\n            (drop1): Dropout(p=0.0, inplace=False)\n            (norm): Identity()\n            (fc2): Linear(in_features=4096, out_features=1024, bias=True)\n            (drop2): Dropout(p=0.0, inplace=False)\n          )\n          (shortcut): Identity()\n          (drop_path): Identity()\n        )\n        (1): ConvNeXtBlock(\n          (conv_dw): Conv2d(1024, 1024, kernel_size=(7, 7), stride=(1, 1), padding=(3, 3), groups=1024)\n          (norm): LayerNorm((1024,), eps=1e-06, elementwise_affine=True)\n          (mlp): Mlp(\n            (fc1): Linear(in_features=1024, out_features=4096, bias=True)\n            (act): GELU()\n            (drop1): Dropout(p=0.0, inplace=False)\n            (norm): Identity()\n            (fc2): Linear(in_features=4096, out_features=1024, bias=True)\n            (drop2): Dropout(p=0.0, inplace=False)\n          )\n          (shortcut): Identity()\n          (drop_path): Identity()\n        )\n        (2): ConvNeXtBlock(\n          (conv_dw): Conv2d(1024, 1024, kernel_size=(7, 7), stride=(1, 1), padding=(3, 3), groups=1024)\n          (norm): LayerNorm((1024,), eps=1e-06, elementwise_affine=True)\n          (mlp): Mlp(\n            (fc1): Linear(in_features=1024, out_features=4096, bias=True)\n            (act): GELU()\n            (drop1): Dropout(p=0.0, inplace=False)\n            (norm): Identity()\n            (fc2): Linear(in_features=4096, out_features=1024, bias=True)\n            (drop2): Dropout(p=0.0, inplace=False)\n          )\n          (shortcut): Identity()\n          (drop_path): Identity()\n        )\n      )\n    )\n  )\n  (norm_pre): Identity()\n  (head): NormMlpClassifierHead(\n    (global_pool): SelectAdaptivePool2d(pool_type=avg, flatten=Identity())\n    (norm): LayerNorm2d((1024,), eps=1e-06, elementwise_affine=True)\n    (flatten): Flatten(start_dim=1, end_dim=-1)\n    (pre_logits): Identity()\n    (drop): Dropout(p=0.0, inplace=False)\n    (fc): Linear(in_features=1024, out_features=2, bias=True)\n  )\n)"},"metadata":{}}],"execution_count":9},{"cell_type":"markdown","source":" DenseNet121","metadata":{}},{"cell_type":"code","source":"model_densenet = timm.create_model(\"densenet121\", pretrained=True, num_classes=2)\nmodel_densenet.to(device)\n","metadata":{"trusted":true,"execution":{"iopub.status.busy":"2025-05-25T11:47:13.333916Z","iopub.execute_input":"2025-05-25T11:47:13.334212Z","iopub.status.idle":"2025-05-25T11:47:13.820033Z","shell.execute_reply.started":"2025-05-25T11:47:13.334190Z","shell.execute_reply":"2025-05-25T11:47:13.819299Z"}},"outputs":[{"output_type":"display_data","data":{"text/plain":"model.safetensors:   0%|          | 0.00/32.3M [00:00<?, ?B/s]","application/vnd.jupyter.widget-view+json":{"version_major":2,"version_minor":0,"model_id":"217249d24d954c12afbb80339f5f0688"}},"metadata":{}},{"execution_count":10,"output_type":"execute_result","data":{"text/plain":"DenseNet(\n  (features): Sequential(\n    (conv0): Conv2d(3, 64, kernel_size=(7, 7), stride=(2, 2), padding=(3, 3), bias=False)\n    (norm0): BatchNormAct2d(\n      64, eps=1e-05, momentum=0.1, affine=True, track_running_stats=True\n      (drop): Identity()\n      (act): ReLU(inplace=True)\n    )\n    (pool0): MaxPool2d(kernel_size=3, stride=2, padding=1, dilation=1, ceil_mode=False)\n    (denseblock1): DenseBlock(\n      (denselayer1): DenseLayer(\n        (norm1): BatchNormAct2d(\n          64, eps=1e-05, momentum=0.1, affine=True, track_running_stats=True\n          (drop): Identity()\n          (act): ReLU(inplace=True)\n        )\n        (conv1): Conv2d(64, 128, kernel_size=(1, 1), stride=(1, 1), bias=False)\n        (norm2): BatchNormAct2d(\n          128, eps=1e-05, momentum=0.1, affine=True, track_running_stats=True\n          (drop): Identity()\n          (act): ReLU(inplace=True)\n        )\n        (conv2): Conv2d(128, 32, kernel_size=(3, 3), stride=(1, 1), padding=(1, 1), bias=False)\n      )\n      (denselayer2): DenseLayer(\n        (norm1): BatchNormAct2d(\n          96, eps=1e-05, momentum=0.1, affine=True, track_running_stats=True\n          (drop): Identity()\n          (act): ReLU(inplace=True)\n        )\n        (conv1): Conv2d(96, 128, kernel_size=(1, 1), stride=(1, 1), bias=False)\n        (norm2): BatchNormAct2d(\n          128, eps=1e-05, momentum=0.1, affine=True, track_running_stats=True\n          (drop): Identity()\n          (act): ReLU(inplace=True)\n        )\n        (conv2): Conv2d(128, 32, kernel_size=(3, 3), stride=(1, 1), padding=(1, 1), bias=False)\n      )\n      (denselayer3): DenseLayer(\n        (norm1): BatchNormAct2d(\n          128, eps=1e-05, momentum=0.1, affine=True, track_running_stats=True\n          (drop): Identity()\n          (act): ReLU(inplace=True)\n        )\n        (conv1): Conv2d(128, 128, kernel_size=(1, 1), stride=(1, 1), bias=False)\n        (norm2): BatchNormAct2d(\n          128, eps=1e-05, momentum=0.1, affine=True, track_running_stats=True\n          (drop): Identity()\n          (act): ReLU(inplace=True)\n        )\n        (conv2): Conv2d(128, 32, kernel_size=(3, 3), stride=(1, 1), padding=(1, 1), bias=False)\n      )\n      (denselayer4): DenseLayer(\n        (norm1): BatchNormAct2d(\n          160, eps=1e-05, momentum=0.1, affine=True, track_running_stats=True\n          (drop): Identity()\n          (act): ReLU(inplace=True)\n        )\n        (conv1): Conv2d(160, 128, kernel_size=(1, 1), stride=(1, 1), bias=False)\n        (norm2): BatchNormAct2d(\n          128, eps=1e-05, momentum=0.1, affine=True, track_running_stats=True\n          (drop): Identity()\n          (act): ReLU(inplace=True)\n        )\n        (conv2): Conv2d(128, 32, kernel_size=(3, 3), stride=(1, 1), padding=(1, 1), bias=False)\n      )\n      (denselayer5): DenseLayer(\n        (norm1): BatchNormAct2d(\n          192, eps=1e-05, momentum=0.1, affine=True, track_running_stats=True\n          (drop): Identity()\n          (act): ReLU(inplace=True)\n        )\n        (conv1): Conv2d(192, 128, kernel_size=(1, 1), stride=(1, 1), bias=False)\n        (norm2): BatchNormAct2d(\n          128, eps=1e-05, momentum=0.1, affine=True, track_running_stats=True\n          (drop): Identity()\n          (act): ReLU(inplace=True)\n        )\n        (conv2): Conv2d(128, 32, kernel_size=(3, 3), stride=(1, 1), padding=(1, 1), bias=False)\n      )\n      (denselayer6): DenseLayer(\n        (norm1): BatchNormAct2d(\n          224, eps=1e-05, momentum=0.1, affine=True, track_running_stats=True\n          (drop): Identity()\n          (act): ReLU(inplace=True)\n        )\n        (conv1): Conv2d(224, 128, kernel_size=(1, 1), stride=(1, 1), bias=False)\n        (norm2): BatchNormAct2d(\n          128, eps=1e-05, momentum=0.1, affine=True, track_running_stats=True\n          (drop): Identity()\n          (act): ReLU(inplace=True)\n        )\n        (conv2): Conv2d(128, 32, kernel_size=(3, 3), stride=(1, 1), padding=(1, 1), bias=False)\n      )\n    )\n    (transition1): DenseTransition(\n      (norm): BatchNormAct2d(\n        256, eps=1e-05, momentum=0.1, affine=True, track_running_stats=True\n        (drop): Identity()\n        (act): ReLU(inplace=True)\n      )\n      (conv): Conv2d(256, 128, kernel_size=(1, 1), stride=(1, 1), bias=False)\n      (pool): AvgPool2d(kernel_size=2, stride=2, padding=0)\n    )\n    (denseblock2): DenseBlock(\n      (denselayer1): DenseLayer(\n        (norm1): BatchNormAct2d(\n          128, eps=1e-05, momentum=0.1, affine=True, track_running_stats=True\n          (drop): Identity()\n          (act): ReLU(inplace=True)\n        )\n        (conv1): Conv2d(128, 128, kernel_size=(1, 1), stride=(1, 1), bias=False)\n        (norm2): BatchNormAct2d(\n          128, eps=1e-05, momentum=0.1, affine=True, track_running_stats=True\n          (drop): Identity()\n          (act): ReLU(inplace=True)\n        )\n        (conv2): Conv2d(128, 32, kernel_size=(3, 3), stride=(1, 1), padding=(1, 1), bias=False)\n      )\n      (denselayer2): DenseLayer(\n        (norm1): BatchNormAct2d(\n          160, eps=1e-05, momentum=0.1, affine=True, track_running_stats=True\n          (drop): Identity()\n          (act): ReLU(inplace=True)\n        )\n        (conv1): Conv2d(160, 128, kernel_size=(1, 1), stride=(1, 1), bias=False)\n        (norm2): BatchNormAct2d(\n          128, eps=1e-05, momentum=0.1, affine=True, track_running_stats=True\n          (drop): Identity()\n          (act): ReLU(inplace=True)\n        )\n        (conv2): Conv2d(128, 32, kernel_size=(3, 3), stride=(1, 1), padding=(1, 1), bias=False)\n      )\n      (denselayer3): DenseLayer(\n        (norm1): BatchNormAct2d(\n          192, eps=1e-05, momentum=0.1, affine=True, track_running_stats=True\n          (drop): Identity()\n          (act): ReLU(inplace=True)\n        )\n        (conv1): Conv2d(192, 128, kernel_size=(1, 1), stride=(1, 1), bias=False)\n        (norm2): BatchNormAct2d(\n          128, eps=1e-05, momentum=0.1, affine=True, track_running_stats=True\n          (drop): Identity()\n          (act): ReLU(inplace=True)\n        )\n        (conv2): Conv2d(128, 32, kernel_size=(3, 3), stride=(1, 1), padding=(1, 1), bias=False)\n      )\n      (denselayer4): DenseLayer(\n        (norm1): BatchNormAct2d(\n          224, eps=1e-05, momentum=0.1, affine=True, track_running_stats=True\n          (drop): Identity()\n          (act): ReLU(inplace=True)\n        )\n        (conv1): Conv2d(224, 128, kernel_size=(1, 1), stride=(1, 1), bias=False)\n        (norm2): BatchNormAct2d(\n          128, eps=1e-05, momentum=0.1, affine=True, track_running_stats=True\n          (drop): Identity()\n          (act): ReLU(inplace=True)\n        )\n        (conv2): Conv2d(128, 32, kernel_size=(3, 3), stride=(1, 1), padding=(1, 1), bias=False)\n      )\n      (denselayer5): DenseLayer(\n        (norm1): BatchNormAct2d(\n          256, eps=1e-05, momentum=0.1, affine=True, track_running_stats=True\n          (drop): Identity()\n          (act): ReLU(inplace=True)\n        )\n        (conv1): Conv2d(256, 128, kernel_size=(1, 1), stride=(1, 1), bias=False)\n        (norm2): BatchNormAct2d(\n          128, eps=1e-05, momentum=0.1, affine=True, track_running_stats=True\n          (drop): Identity()\n          (act): ReLU(inplace=True)\n        )\n        (conv2): Conv2d(128, 32, kernel_size=(3, 3), stride=(1, 1), padding=(1, 1), bias=False)\n      )\n      (denselayer6): DenseLayer(\n        (norm1): BatchNormAct2d(\n          288, eps=1e-05, momentum=0.1, affine=True, track_running_stats=True\n          (drop): Identity()\n          (act): ReLU(inplace=True)\n        )\n        (conv1): Conv2d(288, 128, kernel_size=(1, 1), stride=(1, 1), bias=False)\n        (norm2): BatchNormAct2d(\n          128, eps=1e-05, momentum=0.1, affine=True, track_running_stats=True\n          (drop): Identity()\n          (act): ReLU(inplace=True)\n        )\n        (conv2): Conv2d(128, 32, kernel_size=(3, 3), stride=(1, 1), padding=(1, 1), bias=False)\n      )\n      (denselayer7): DenseLayer(\n        (norm1): BatchNormAct2d(\n          320, eps=1e-05, momentum=0.1, affine=True, track_running_stats=True\n          (drop): Identity()\n          (act): ReLU(inplace=True)\n        )\n        (conv1): Conv2d(320, 128, kernel_size=(1, 1), stride=(1, 1), bias=False)\n        (norm2): BatchNormAct2d(\n          128, eps=1e-05, momentum=0.1, affine=True, track_running_stats=True\n          (drop): Identity()\n          (act): ReLU(inplace=True)\n        )\n        (conv2): Conv2d(128, 32, kernel_size=(3, 3), stride=(1, 1), padding=(1, 1), bias=False)\n      )\n      (denselayer8): DenseLayer(\n        (norm1): BatchNormAct2d(\n          352, eps=1e-05, momentum=0.1, affine=True, track_running_stats=True\n          (drop): Identity()\n          (act): ReLU(inplace=True)\n        )\n        (conv1): Conv2d(352, 128, kernel_size=(1, 1), stride=(1, 1), bias=False)\n        (norm2): BatchNormAct2d(\n          128, eps=1e-05, momentum=0.1, affine=True, track_running_stats=True\n          (drop): Identity()\n          (act): ReLU(inplace=True)\n        )\n        (conv2): Conv2d(128, 32, kernel_size=(3, 3), stride=(1, 1), padding=(1, 1), bias=False)\n      )\n      (denselayer9): DenseLayer(\n        (norm1): BatchNormAct2d(\n          384, eps=1e-05, momentum=0.1, affine=True, track_running_stats=True\n          (drop): Identity()\n          (act): ReLU(inplace=True)\n        )\n        (conv1): Conv2d(384, 128, kernel_size=(1, 1), stride=(1, 1), bias=False)\n        (norm2): BatchNormAct2d(\n          128, eps=1e-05, momentum=0.1, affine=True, track_running_stats=True\n          (drop): Identity()\n          (act): ReLU(inplace=True)\n        )\n        (conv2): Conv2d(128, 32, kernel_size=(3, 3), stride=(1, 1), padding=(1, 1), bias=False)\n      )\n      (denselayer10): DenseLayer(\n        (norm1): BatchNormAct2d(\n          416, eps=1e-05, momentum=0.1, affine=True, track_running_stats=True\n          (drop): Identity()\n          (act): ReLU(inplace=True)\n        )\n        (conv1): Conv2d(416, 128, kernel_size=(1, 1), stride=(1, 1), bias=False)\n        (norm2): BatchNormAct2d(\n          128, eps=1e-05, momentum=0.1, affine=True, track_running_stats=True\n          (drop): Identity()\n          (act): ReLU(inplace=True)\n        )\n        (conv2): Conv2d(128, 32, kernel_size=(3, 3), stride=(1, 1), padding=(1, 1), bias=False)\n      )\n      (denselayer11): DenseLayer(\n        (norm1): BatchNormAct2d(\n          448, eps=1e-05, momentum=0.1, affine=True, track_running_stats=True\n          (drop): Identity()\n          (act): ReLU(inplace=True)\n        )\n        (conv1): Conv2d(448, 128, kernel_size=(1, 1), stride=(1, 1), bias=False)\n        (norm2): BatchNormAct2d(\n          128, eps=1e-05, momentum=0.1, affine=True, track_running_stats=True\n          (drop): Identity()\n          (act): ReLU(inplace=True)\n        )\n        (conv2): Conv2d(128, 32, kernel_size=(3, 3), stride=(1, 1), padding=(1, 1), bias=False)\n      )\n      (denselayer12): DenseLayer(\n        (norm1): BatchNormAct2d(\n          480, eps=1e-05, momentum=0.1, affine=True, track_running_stats=True\n          (drop): Identity()\n          (act): ReLU(inplace=True)\n        )\n        (conv1): Conv2d(480, 128, kernel_size=(1, 1), stride=(1, 1), bias=False)\n        (norm2): BatchNormAct2d(\n          128, eps=1e-05, momentum=0.1, affine=True, track_running_stats=True\n          (drop): Identity()\n          (act): ReLU(inplace=True)\n        )\n        (conv2): Conv2d(128, 32, kernel_size=(3, 3), stride=(1, 1), padding=(1, 1), bias=False)\n      )\n    )\n    (transition2): DenseTransition(\n      (norm): BatchNormAct2d(\n        512, eps=1e-05, momentum=0.1, affine=True, track_running_stats=True\n        (drop): Identity()\n        (act): ReLU(inplace=True)\n      )\n      (conv): Conv2d(512, 256, kernel_size=(1, 1), stride=(1, 1), bias=False)\n      (pool): AvgPool2d(kernel_size=2, stride=2, padding=0)\n    )\n    (denseblock3): DenseBlock(\n      (denselayer1): DenseLayer(\n        (norm1): BatchNormAct2d(\n          256, eps=1e-05, momentum=0.1, affine=True, track_running_stats=True\n          (drop): Identity()\n          (act): ReLU(inplace=True)\n        )\n        (conv1): Conv2d(256, 128, kernel_size=(1, 1), stride=(1, 1), bias=False)\n        (norm2): BatchNormAct2d(\n          128, eps=1e-05, momentum=0.1, affine=True, track_running_stats=True\n          (drop): Identity()\n          (act): ReLU(inplace=True)\n        )\n        (conv2): Conv2d(128, 32, kernel_size=(3, 3), stride=(1, 1), padding=(1, 1), bias=False)\n      )\n      (denselayer2): DenseLayer(\n        (norm1): BatchNormAct2d(\n          288, eps=1e-05, momentum=0.1, affine=True, track_running_stats=True\n          (drop): Identity()\n          (act): ReLU(inplace=True)\n        )\n        (conv1): Conv2d(288, 128, kernel_size=(1, 1), stride=(1, 1), bias=False)\n        (norm2): BatchNormAct2d(\n          128, eps=1e-05, momentum=0.1, affine=True, track_running_stats=True\n          (drop): Identity()\n          (act): ReLU(inplace=True)\n        )\n        (conv2): Conv2d(128, 32, kernel_size=(3, 3), stride=(1, 1), padding=(1, 1), bias=False)\n      )\n      (denselayer3): DenseLayer(\n        (norm1): BatchNormAct2d(\n          320, eps=1e-05, momentum=0.1, affine=True, track_running_stats=True\n          (drop): Identity()\n          (act): ReLU(inplace=True)\n        )\n        (conv1): Conv2d(320, 128, kernel_size=(1, 1), stride=(1, 1), bias=False)\n        (norm2): BatchNormAct2d(\n          128, eps=1e-05, momentum=0.1, affine=True, track_running_stats=True\n          (drop): Identity()\n          (act): ReLU(inplace=True)\n        )\n        (conv2): Conv2d(128, 32, kernel_size=(3, 3), stride=(1, 1), padding=(1, 1), bias=False)\n      )\n      (denselayer4): DenseLayer(\n        (norm1): BatchNormAct2d(\n          352, eps=1e-05, momentum=0.1, affine=True, track_running_stats=True\n          (drop): Identity()\n          (act): ReLU(inplace=True)\n        )\n        (conv1): Conv2d(352, 128, kernel_size=(1, 1), stride=(1, 1), bias=False)\n        (norm2): BatchNormAct2d(\n          128, eps=1e-05, momentum=0.1, affine=True, track_running_stats=True\n          (drop): Identity()\n          (act): ReLU(inplace=True)\n        )\n        (conv2): Conv2d(128, 32, kernel_size=(3, 3), stride=(1, 1), padding=(1, 1), bias=False)\n      )\n      (denselayer5): DenseLayer(\n        (norm1): BatchNormAct2d(\n          384, eps=1e-05, momentum=0.1, affine=True, track_running_stats=True\n          (drop): Identity()\n          (act): ReLU(inplace=True)\n        )\n        (conv1): Conv2d(384, 128, kernel_size=(1, 1), stride=(1, 1), bias=False)\n        (norm2): BatchNormAct2d(\n          128, eps=1e-05, momentum=0.1, affine=True, track_running_stats=True\n          (drop): Identity()\n          (act): ReLU(inplace=True)\n        )\n        (conv2): Conv2d(128, 32, kernel_size=(3, 3), stride=(1, 1), padding=(1, 1), bias=False)\n      )\n      (denselayer6): DenseLayer(\n        (norm1): BatchNormAct2d(\n          416, eps=1e-05, momentum=0.1, affine=True, track_running_stats=True\n          (drop): Identity()\n          (act): ReLU(inplace=True)\n        )\n        (conv1): Conv2d(416, 128, kernel_size=(1, 1), stride=(1, 1), bias=False)\n        (norm2): BatchNormAct2d(\n          128, eps=1e-05, momentum=0.1, affine=True, track_running_stats=True\n          (drop): Identity()\n          (act): ReLU(inplace=True)\n        )\n        (conv2): Conv2d(128, 32, kernel_size=(3, 3), stride=(1, 1), padding=(1, 1), bias=False)\n      )\n      (denselayer7): DenseLayer(\n        (norm1): BatchNormAct2d(\n          448, eps=1e-05, momentum=0.1, affine=True, track_running_stats=True\n          (drop): Identity()\n          (act): ReLU(inplace=True)\n        )\n        (conv1): Conv2d(448, 128, kernel_size=(1, 1), stride=(1, 1), bias=False)\n        (norm2): BatchNormAct2d(\n          128, eps=1e-05, momentum=0.1, affine=True, track_running_stats=True\n          (drop): Identity()\n          (act): ReLU(inplace=True)\n        )\n        (conv2): Conv2d(128, 32, kernel_size=(3, 3), stride=(1, 1), padding=(1, 1), bias=False)\n      )\n      (denselayer8): DenseLayer(\n        (norm1): BatchNormAct2d(\n          480, eps=1e-05, momentum=0.1, affine=True, track_running_stats=True\n          (drop): Identity()\n          (act): ReLU(inplace=True)\n        )\n        (conv1): Conv2d(480, 128, kernel_size=(1, 1), stride=(1, 1), bias=False)\n        (norm2): BatchNormAct2d(\n          128, eps=1e-05, momentum=0.1, affine=True, track_running_stats=True\n          (drop): Identity()\n          (act): ReLU(inplace=True)\n        )\n        (conv2): Conv2d(128, 32, kernel_size=(3, 3), stride=(1, 1), padding=(1, 1), bias=False)\n      )\n      (denselayer9): DenseLayer(\n        (norm1): BatchNormAct2d(\n          512, eps=1e-05, momentum=0.1, affine=True, track_running_stats=True\n          (drop): Identity()\n          (act): ReLU(inplace=True)\n        )\n        (conv1): Conv2d(512, 128, kernel_size=(1, 1), stride=(1, 1), bias=False)\n        (norm2): BatchNormAct2d(\n          128, eps=1e-05, momentum=0.1, affine=True, track_running_stats=True\n          (drop): Identity()\n          (act): ReLU(inplace=True)\n        )\n        (conv2): Conv2d(128, 32, kernel_size=(3, 3), stride=(1, 1), padding=(1, 1), bias=False)\n      )\n      (denselayer10): DenseLayer(\n        (norm1): BatchNormAct2d(\n          544, eps=1e-05, momentum=0.1, affine=True, track_running_stats=True\n          (drop): Identity()\n          (act): ReLU(inplace=True)\n        )\n        (conv1): Conv2d(544, 128, kernel_size=(1, 1), stride=(1, 1), bias=False)\n        (norm2): BatchNormAct2d(\n          128, eps=1e-05, momentum=0.1, affine=True, track_running_stats=True\n          (drop): Identity()\n          (act): ReLU(inplace=True)\n        )\n        (conv2): Conv2d(128, 32, kernel_size=(3, 3), stride=(1, 1), padding=(1, 1), bias=False)\n      )\n      (denselayer11): DenseLayer(\n        (norm1): BatchNormAct2d(\n          576, eps=1e-05, momentum=0.1, affine=True, track_running_stats=True\n          (drop): Identity()\n          (act): ReLU(inplace=True)\n        )\n        (conv1): Conv2d(576, 128, kernel_size=(1, 1), stride=(1, 1), bias=False)\n        (norm2): BatchNormAct2d(\n          128, eps=1e-05, momentum=0.1, affine=True, track_running_stats=True\n          (drop): Identity()\n          (act): ReLU(inplace=True)\n        )\n        (conv2): Conv2d(128, 32, kernel_size=(3, 3), stride=(1, 1), padding=(1, 1), bias=False)\n      )\n      (denselayer12): DenseLayer(\n        (norm1): BatchNormAct2d(\n          608, eps=1e-05, momentum=0.1, affine=True, track_running_stats=True\n          (drop): Identity()\n          (act): ReLU(inplace=True)\n        )\n        (conv1): Conv2d(608, 128, kernel_size=(1, 1), stride=(1, 1), bias=False)\n        (norm2): BatchNormAct2d(\n          128, eps=1e-05, momentum=0.1, affine=True, track_running_stats=True\n          (drop): Identity()\n          (act): ReLU(inplace=True)\n        )\n        (conv2): Conv2d(128, 32, kernel_size=(3, 3), stride=(1, 1), padding=(1, 1), bias=False)\n      )\n      (denselayer13): DenseLayer(\n        (norm1): BatchNormAct2d(\n          640, eps=1e-05, momentum=0.1, affine=True, track_running_stats=True\n          (drop): Identity()\n          (act): ReLU(inplace=True)\n        )\n        (conv1): Conv2d(640, 128, kernel_size=(1, 1), stride=(1, 1), bias=False)\n        (norm2): BatchNormAct2d(\n          128, eps=1e-05, momentum=0.1, affine=True, track_running_stats=True\n          (drop): Identity()\n          (act): ReLU(inplace=True)\n        )\n        (conv2): Conv2d(128, 32, kernel_size=(3, 3), stride=(1, 1), padding=(1, 1), bias=False)\n      )\n      (denselayer14): DenseLayer(\n        (norm1): BatchNormAct2d(\n          672, eps=1e-05, momentum=0.1, affine=True, track_running_stats=True\n          (drop): Identity()\n          (act): ReLU(inplace=True)\n        )\n        (conv1): Conv2d(672, 128, kernel_size=(1, 1), stride=(1, 1), bias=False)\n        (norm2): BatchNormAct2d(\n          128, eps=1e-05, momentum=0.1, affine=True, track_running_stats=True\n          (drop): Identity()\n          (act): ReLU(inplace=True)\n        )\n        (conv2): Conv2d(128, 32, kernel_size=(3, 3), stride=(1, 1), padding=(1, 1), bias=False)\n      )\n      (denselayer15): DenseLayer(\n        (norm1): BatchNormAct2d(\n          704, eps=1e-05, momentum=0.1, affine=True, track_running_stats=True\n          (drop): Identity()\n          (act): ReLU(inplace=True)\n        )\n        (conv1): Conv2d(704, 128, kernel_size=(1, 1), stride=(1, 1), bias=False)\n        (norm2): BatchNormAct2d(\n          128, eps=1e-05, momentum=0.1, affine=True, track_running_stats=True\n          (drop): Identity()\n          (act): ReLU(inplace=True)\n        )\n        (conv2): Conv2d(128, 32, kernel_size=(3, 3), stride=(1, 1), padding=(1, 1), bias=False)\n      )\n      (denselayer16): DenseLayer(\n        (norm1): BatchNormAct2d(\n          736, eps=1e-05, momentum=0.1, affine=True, track_running_stats=True\n          (drop): Identity()\n          (act): ReLU(inplace=True)\n        )\n        (conv1): Conv2d(736, 128, kernel_size=(1, 1), stride=(1, 1), bias=False)\n        (norm2): BatchNormAct2d(\n          128, eps=1e-05, momentum=0.1, affine=True, track_running_stats=True\n          (drop): Identity()\n          (act): ReLU(inplace=True)\n        )\n        (conv2): Conv2d(128, 32, kernel_size=(3, 3), stride=(1, 1), padding=(1, 1), bias=False)\n      )\n      (denselayer17): DenseLayer(\n        (norm1): BatchNormAct2d(\n          768, eps=1e-05, momentum=0.1, affine=True, track_running_stats=True\n          (drop): Identity()\n          (act): ReLU(inplace=True)\n        )\n        (conv1): Conv2d(768, 128, kernel_size=(1, 1), stride=(1, 1), bias=False)\n        (norm2): BatchNormAct2d(\n          128, eps=1e-05, momentum=0.1, affine=True, track_running_stats=True\n          (drop): Identity()\n          (act): ReLU(inplace=True)\n        )\n        (conv2): Conv2d(128, 32, kernel_size=(3, 3), stride=(1, 1), padding=(1, 1), bias=False)\n      )\n      (denselayer18): DenseLayer(\n        (norm1): BatchNormAct2d(\n          800, eps=1e-05, momentum=0.1, affine=True, track_running_stats=True\n          (drop): Identity()\n          (act): ReLU(inplace=True)\n        )\n        (conv1): Conv2d(800, 128, kernel_size=(1, 1), stride=(1, 1), bias=False)\n        (norm2): BatchNormAct2d(\n          128, eps=1e-05, momentum=0.1, affine=True, track_running_stats=True\n          (drop): Identity()\n          (act): ReLU(inplace=True)\n        )\n        (conv2): Conv2d(128, 32, kernel_size=(3, 3), stride=(1, 1), padding=(1, 1), bias=False)\n      )\n      (denselayer19): DenseLayer(\n        (norm1): BatchNormAct2d(\n          832, eps=1e-05, momentum=0.1, affine=True, track_running_stats=True\n          (drop): Identity()\n          (act): ReLU(inplace=True)\n        )\n        (conv1): Conv2d(832, 128, kernel_size=(1, 1), stride=(1, 1), bias=False)\n        (norm2): BatchNormAct2d(\n          128, eps=1e-05, momentum=0.1, affine=True, track_running_stats=True\n          (drop): Identity()\n          (act): ReLU(inplace=True)\n        )\n        (conv2): Conv2d(128, 32, kernel_size=(3, 3), stride=(1, 1), padding=(1, 1), bias=False)\n      )\n      (denselayer20): DenseLayer(\n        (norm1): BatchNormAct2d(\n          864, eps=1e-05, momentum=0.1, affine=True, track_running_stats=True\n          (drop): Identity()\n          (act): ReLU(inplace=True)\n        )\n        (conv1): Conv2d(864, 128, kernel_size=(1, 1), stride=(1, 1), bias=False)\n        (norm2): BatchNormAct2d(\n          128, eps=1e-05, momentum=0.1, affine=True, track_running_stats=True\n          (drop): Identity()\n          (act): ReLU(inplace=True)\n        )\n        (conv2): Conv2d(128, 32, kernel_size=(3, 3), stride=(1, 1), padding=(1, 1), bias=False)\n      )\n      (denselayer21): DenseLayer(\n        (norm1): BatchNormAct2d(\n          896, eps=1e-05, momentum=0.1, affine=True, track_running_stats=True\n          (drop): Identity()\n          (act): ReLU(inplace=True)\n        )\n        (conv1): Conv2d(896, 128, kernel_size=(1, 1), stride=(1, 1), bias=False)\n        (norm2): BatchNormAct2d(\n          128, eps=1e-05, momentum=0.1, affine=True, track_running_stats=True\n          (drop): Identity()\n          (act): ReLU(inplace=True)\n        )\n        (conv2): Conv2d(128, 32, kernel_size=(3, 3), stride=(1, 1), padding=(1, 1), bias=False)\n      )\n      (denselayer22): DenseLayer(\n        (norm1): BatchNormAct2d(\n          928, eps=1e-05, momentum=0.1, affine=True, track_running_stats=True\n          (drop): Identity()\n          (act): ReLU(inplace=True)\n        )\n        (conv1): Conv2d(928, 128, kernel_size=(1, 1), stride=(1, 1), bias=False)\n        (norm2): BatchNormAct2d(\n          128, eps=1e-05, momentum=0.1, affine=True, track_running_stats=True\n          (drop): Identity()\n          (act): ReLU(inplace=True)\n        )\n        (conv2): Conv2d(128, 32, kernel_size=(3, 3), stride=(1, 1), padding=(1, 1), bias=False)\n      )\n      (denselayer23): DenseLayer(\n        (norm1): BatchNormAct2d(\n          960, eps=1e-05, momentum=0.1, affine=True, track_running_stats=True\n          (drop): Identity()\n          (act): ReLU(inplace=True)\n        )\n        (conv1): Conv2d(960, 128, kernel_size=(1, 1), stride=(1, 1), bias=False)\n        (norm2): BatchNormAct2d(\n          128, eps=1e-05, momentum=0.1, affine=True, track_running_stats=True\n          (drop): Identity()\n          (act): ReLU(inplace=True)\n        )\n        (conv2): Conv2d(128, 32, kernel_size=(3, 3), stride=(1, 1), padding=(1, 1), bias=False)\n      )\n      (denselayer24): DenseLayer(\n        (norm1): BatchNormAct2d(\n          992, eps=1e-05, momentum=0.1, affine=True, track_running_stats=True\n          (drop): Identity()\n          (act): ReLU(inplace=True)\n        )\n        (conv1): Conv2d(992, 128, kernel_size=(1, 1), stride=(1, 1), bias=False)\n        (norm2): BatchNormAct2d(\n          128, eps=1e-05, momentum=0.1, affine=True, track_running_stats=True\n          (drop): Identity()\n          (act): ReLU(inplace=True)\n        )\n        (conv2): Conv2d(128, 32, kernel_size=(3, 3), stride=(1, 1), padding=(1, 1), bias=False)\n      )\n    )\n    (transition3): DenseTransition(\n      (norm): BatchNormAct2d(\n        1024, eps=1e-05, momentum=0.1, affine=True, track_running_stats=True\n        (drop): Identity()\n        (act): ReLU(inplace=True)\n      )\n      (conv): Conv2d(1024, 512, kernel_size=(1, 1), stride=(1, 1), bias=False)\n      (pool): AvgPool2d(kernel_size=2, stride=2, padding=0)\n    )\n    (denseblock4): DenseBlock(\n      (denselayer1): DenseLayer(\n        (norm1): BatchNormAct2d(\n          512, eps=1e-05, momentum=0.1, affine=True, track_running_stats=True\n          (drop): Identity()\n          (act): ReLU(inplace=True)\n        )\n        (conv1): Conv2d(512, 128, kernel_size=(1, 1), stride=(1, 1), bias=False)\n        (norm2): BatchNormAct2d(\n          128, eps=1e-05, momentum=0.1, affine=True, track_running_stats=True\n          (drop): Identity()\n          (act): ReLU(inplace=True)\n        )\n        (conv2): Conv2d(128, 32, kernel_size=(3, 3), stride=(1, 1), padding=(1, 1), bias=False)\n      )\n      (denselayer2): DenseLayer(\n        (norm1): BatchNormAct2d(\n          544, eps=1e-05, momentum=0.1, affine=True, track_running_stats=True\n          (drop): Identity()\n          (act): ReLU(inplace=True)\n        )\n        (conv1): Conv2d(544, 128, kernel_size=(1, 1), stride=(1, 1), bias=False)\n        (norm2): BatchNormAct2d(\n          128, eps=1e-05, momentum=0.1, affine=True, track_running_stats=True\n          (drop): Identity()\n          (act): ReLU(inplace=True)\n        )\n        (conv2): Conv2d(128, 32, kernel_size=(3, 3), stride=(1, 1), padding=(1, 1), bias=False)\n      )\n      (denselayer3): DenseLayer(\n        (norm1): BatchNormAct2d(\n          576, eps=1e-05, momentum=0.1, affine=True, track_running_stats=True\n          (drop): Identity()\n          (act): ReLU(inplace=True)\n        )\n        (conv1): Conv2d(576, 128, kernel_size=(1, 1), stride=(1, 1), bias=False)\n        (norm2): BatchNormAct2d(\n          128, eps=1e-05, momentum=0.1, affine=True, track_running_stats=True\n          (drop): Identity()\n          (act): ReLU(inplace=True)\n        )\n        (conv2): Conv2d(128, 32, kernel_size=(3, 3), stride=(1, 1), padding=(1, 1), bias=False)\n      )\n      (denselayer4): DenseLayer(\n        (norm1): BatchNormAct2d(\n          608, eps=1e-05, momentum=0.1, affine=True, track_running_stats=True\n          (drop): Identity()\n          (act): ReLU(inplace=True)\n        )\n        (conv1): Conv2d(608, 128, kernel_size=(1, 1), stride=(1, 1), bias=False)\n        (norm2): BatchNormAct2d(\n          128, eps=1e-05, momentum=0.1, affine=True, track_running_stats=True\n          (drop): Identity()\n          (act): ReLU(inplace=True)\n        )\n        (conv2): Conv2d(128, 32, kernel_size=(3, 3), stride=(1, 1), padding=(1, 1), bias=False)\n      )\n      (denselayer5): DenseLayer(\n        (norm1): BatchNormAct2d(\n          640, eps=1e-05, momentum=0.1, affine=True, track_running_stats=True\n          (drop): Identity()\n          (act): ReLU(inplace=True)\n        )\n        (conv1): Conv2d(640, 128, kernel_size=(1, 1), stride=(1, 1), bias=False)\n        (norm2): BatchNormAct2d(\n          128, eps=1e-05, momentum=0.1, affine=True, track_running_stats=True\n          (drop): Identity()\n          (act): ReLU(inplace=True)\n        )\n        (conv2): Conv2d(128, 32, kernel_size=(3, 3), stride=(1, 1), padding=(1, 1), bias=False)\n      )\n      (denselayer6): DenseLayer(\n        (norm1): BatchNormAct2d(\n          672, eps=1e-05, momentum=0.1, affine=True, track_running_stats=True\n          (drop): Identity()\n          (act): ReLU(inplace=True)\n        )\n        (conv1): Conv2d(672, 128, kernel_size=(1, 1), stride=(1, 1), bias=False)\n        (norm2): BatchNormAct2d(\n          128, eps=1e-05, momentum=0.1, affine=True, track_running_stats=True\n          (drop): Identity()\n          (act): ReLU(inplace=True)\n        )\n        (conv2): Conv2d(128, 32, kernel_size=(3, 3), stride=(1, 1), padding=(1, 1), bias=False)\n      )\n      (denselayer7): DenseLayer(\n        (norm1): BatchNormAct2d(\n          704, eps=1e-05, momentum=0.1, affine=True, track_running_stats=True\n          (drop): Identity()\n          (act): ReLU(inplace=True)\n        )\n        (conv1): Conv2d(704, 128, kernel_size=(1, 1), stride=(1, 1), bias=False)\n        (norm2): BatchNormAct2d(\n          128, eps=1e-05, momentum=0.1, affine=True, track_running_stats=True\n          (drop): Identity()\n          (act): ReLU(inplace=True)\n        )\n        (conv2): Conv2d(128, 32, kernel_size=(3, 3), stride=(1, 1), padding=(1, 1), bias=False)\n      )\n      (denselayer8): DenseLayer(\n        (norm1): BatchNormAct2d(\n          736, eps=1e-05, momentum=0.1, affine=True, track_running_stats=True\n          (drop): Identity()\n          (act): ReLU(inplace=True)\n        )\n        (conv1): Conv2d(736, 128, kernel_size=(1, 1), stride=(1, 1), bias=False)\n        (norm2): BatchNormAct2d(\n          128, eps=1e-05, momentum=0.1, affine=True, track_running_stats=True\n          (drop): Identity()\n          (act): ReLU(inplace=True)\n        )\n        (conv2): Conv2d(128, 32, kernel_size=(3, 3), stride=(1, 1), padding=(1, 1), bias=False)\n      )\n      (denselayer9): DenseLayer(\n        (norm1): BatchNormAct2d(\n          768, eps=1e-05, momentum=0.1, affine=True, track_running_stats=True\n          (drop): Identity()\n          (act): ReLU(inplace=True)\n        )\n        (conv1): Conv2d(768, 128, kernel_size=(1, 1), stride=(1, 1), bias=False)\n        (norm2): BatchNormAct2d(\n          128, eps=1e-05, momentum=0.1, affine=True, track_running_stats=True\n          (drop): Identity()\n          (act): ReLU(inplace=True)\n        )\n        (conv2): Conv2d(128, 32, kernel_size=(3, 3), stride=(1, 1), padding=(1, 1), bias=False)\n      )\n      (denselayer10): DenseLayer(\n        (norm1): BatchNormAct2d(\n          800, eps=1e-05, momentum=0.1, affine=True, track_running_stats=True\n          (drop): Identity()\n          (act): ReLU(inplace=True)\n        )\n        (conv1): Conv2d(800, 128, kernel_size=(1, 1), stride=(1, 1), bias=False)\n        (norm2): BatchNormAct2d(\n          128, eps=1e-05, momentum=0.1, affine=True, track_running_stats=True\n          (drop): Identity()\n          (act): ReLU(inplace=True)\n        )\n        (conv2): Conv2d(128, 32, kernel_size=(3, 3), stride=(1, 1), padding=(1, 1), bias=False)\n      )\n      (denselayer11): DenseLayer(\n        (norm1): BatchNormAct2d(\n          832, eps=1e-05, momentum=0.1, affine=True, track_running_stats=True\n          (drop): Identity()\n          (act): ReLU(inplace=True)\n        )\n        (conv1): Conv2d(832, 128, kernel_size=(1, 1), stride=(1, 1), bias=False)\n        (norm2): BatchNormAct2d(\n          128, eps=1e-05, momentum=0.1, affine=True, track_running_stats=True\n          (drop): Identity()\n          (act): ReLU(inplace=True)\n        )\n        (conv2): Conv2d(128, 32, kernel_size=(3, 3), stride=(1, 1), padding=(1, 1), bias=False)\n      )\n      (denselayer12): DenseLayer(\n        (norm1): BatchNormAct2d(\n          864, eps=1e-05, momentum=0.1, affine=True, track_running_stats=True\n          (drop): Identity()\n          (act): ReLU(inplace=True)\n        )\n        (conv1): Conv2d(864, 128, kernel_size=(1, 1), stride=(1, 1), bias=False)\n        (norm2): BatchNormAct2d(\n          128, eps=1e-05, momentum=0.1, affine=True, track_running_stats=True\n          (drop): Identity()\n          (act): ReLU(inplace=True)\n        )\n        (conv2): Conv2d(128, 32, kernel_size=(3, 3), stride=(1, 1), padding=(1, 1), bias=False)\n      )\n      (denselayer13): DenseLayer(\n        (norm1): BatchNormAct2d(\n          896, eps=1e-05, momentum=0.1, affine=True, track_running_stats=True\n          (drop): Identity()\n          (act): ReLU(inplace=True)\n        )\n        (conv1): Conv2d(896, 128, kernel_size=(1, 1), stride=(1, 1), bias=False)\n        (norm2): BatchNormAct2d(\n          128, eps=1e-05, momentum=0.1, affine=True, track_running_stats=True\n          (drop): Identity()\n          (act): ReLU(inplace=True)\n        )\n        (conv2): Conv2d(128, 32, kernel_size=(3, 3), stride=(1, 1), padding=(1, 1), bias=False)\n      )\n      (denselayer14): DenseLayer(\n        (norm1): BatchNormAct2d(\n          928, eps=1e-05, momentum=0.1, affine=True, track_running_stats=True\n          (drop): Identity()\n          (act): ReLU(inplace=True)\n        )\n        (conv1): Conv2d(928, 128, kernel_size=(1, 1), stride=(1, 1), bias=False)\n        (norm2): BatchNormAct2d(\n          128, eps=1e-05, momentum=0.1, affine=True, track_running_stats=True\n          (drop): Identity()\n          (act): ReLU(inplace=True)\n        )\n        (conv2): Conv2d(128, 32, kernel_size=(3, 3), stride=(1, 1), padding=(1, 1), bias=False)\n      )\n      (denselayer15): DenseLayer(\n        (norm1): BatchNormAct2d(\n          960, eps=1e-05, momentum=0.1, affine=True, track_running_stats=True\n          (drop): Identity()\n          (act): ReLU(inplace=True)\n        )\n        (conv1): Conv2d(960, 128, kernel_size=(1, 1), stride=(1, 1), bias=False)\n        (norm2): BatchNormAct2d(\n          128, eps=1e-05, momentum=0.1, affine=True, track_running_stats=True\n          (drop): Identity()\n          (act): ReLU(inplace=True)\n        )\n        (conv2): Conv2d(128, 32, kernel_size=(3, 3), stride=(1, 1), padding=(1, 1), bias=False)\n      )\n      (denselayer16): DenseLayer(\n        (norm1): BatchNormAct2d(\n          992, eps=1e-05, momentum=0.1, affine=True, track_running_stats=True\n          (drop): Identity()\n          (act): ReLU(inplace=True)\n        )\n        (conv1): Conv2d(992, 128, kernel_size=(1, 1), stride=(1, 1), bias=False)\n        (norm2): BatchNormAct2d(\n          128, eps=1e-05, momentum=0.1, affine=True, track_running_stats=True\n          (drop): Identity()\n          (act): ReLU(inplace=True)\n        )\n        (conv2): Conv2d(128, 32, kernel_size=(3, 3), stride=(1, 1), padding=(1, 1), bias=False)\n      )\n    )\n    (norm5): BatchNormAct2d(\n      1024, eps=1e-05, momentum=0.1, affine=True, track_running_stats=True\n      (drop): Identity()\n      (act): ReLU(inplace=True)\n    )\n  )\n  (global_pool): SelectAdaptivePool2d(pool_type=avg, flatten=Flatten(start_dim=1, end_dim=-1))\n  (head_drop): Dropout(p=0.0, inplace=False)\n  (classifier): Linear(in_features=1024, out_features=2, bias=True)\n)"},"metadata":{}}],"execution_count":10},{"cell_type":"markdown","source":"**Training and Evaluation Functions**","metadata":{}},{"cell_type":"code","source":"import torch\nimport torch.nn as nn\nimport torch.optim as optim\nfrom sklearn.metrics import accuracy_score, precision_score, recall_score, f1_score\nfrom tqdm import tqdm\n\ndef train_model(mo
…
  return x\n\nensemble_model = EnsembleModel(model_swin, model_convnext, model_densenet)\nensemble_model.to(device)\n","metadata":{"trusted":true,"execution":{"iopub.status.busy":"2025-05-25T11:48:09.624687Z","iopub.execute_input":"2025-05-25T11:48:09.624948Z","iopub.status.idle":"2025-05-25T11:48:09.652590Z","shell.execute_reply.started":"2025-05-25T11:48:09.624929Z","shell.execute_reply":"2025-05-25T11:48:09.651858Z"}},"outputs":[{"execution_count":12,"output_type":"execute_result","data":{"text/plain":"EnsembleModel(\n  (modelA): SwinTransformer(\n    (patch_embed): PatchEmbed(\n      (proj): Conv2d(3, 128, kernel_size=(4, 4), stride=(4, 4))\n      (norm): LayerNorm((128,), eps=1e-05, elementwise_affine=True)\n    )\n    (layers): Sequential(\n      (0): SwinTransformerStage(\n        (downsample): Identity()\n        (blocks): Sequential(\n          (0): SwinTransformerBlock(\n            (norm1): LayerNorm((128,), eps=1e-05, elementwise_affine=True)\n            (attn): WindowAttention(\n              (qkv): Linear(in_features=128, out_features=384, bias=True)\n              (attn_drop): Dropout(p=0.0, inplace=False)\n              (proj): Linear(in_features=128, out_features=128, bias=True)\n              (proj_drop): Dropout(p=0.0, inplace=False)\n              (softmax): Softmax(dim=-1)\n            )\n            (drop_path1): Identity()\n            (norm2): LayerNorm((128,), eps=1e-05, elementwise_affine=True)\n            (mlp): Mlp(\n              (fc1): Linear(in_features=128, out_features=512, bias=True)\n              (act): GELU(approximate='none')\n              (drop1): Dropout(p=0.0, inplace=False)\n              (norm): Identity()\n              (fc2): Linear(in_features=512, out_features=128, bias=True)\n              (drop2): Dropout(p=0.0, inplace=False)\n            )\n            (drop_path2): Identity()\n          )\n          (1): SwinTransformerBlock(\n            (norm1): LayerNorm((128,), eps=1e-05, elementwise_affine=True)\n            (attn): WindowAttention(\n              (qkv): Linear(in_features=128, out_features=384, bias=True)\n              (attn_drop): Dropout(p=0.0, inplace=False)\n              (proj): Linear(in_features=128, out_features=128, bias=True)\n              (proj_drop): Dropout(p=0.0, inplace=False)\n              (softmax): Softmax(dim=-1)\n            )\n            (drop_path1): DropPath(drop_prob=0.004)\n            (norm2): LayerNorm((128,), eps=1e-05, elementwise_affine=True)\n            (mlp): Mlp(\n              (fc1): Linear(in_features=128, out_features=512, bias=True)\n              (act): GELU(approximate='none')\n              (drop1): Dropout(p=0.0, inplace=False)\n              (norm): Identity()\n              (fc2): Linear(in_features=512, out_features=128, bias=True)\n              (drop2): Dropout(p=0.0, inplace=False)\n            )\n            (drop_path2): DropPath(drop_prob=0.004)\n          )\n        )\n      )\n      (1): SwinTransformerStage(\n        (downsample): PatchMerging(\n          (norm): LayerNorm((512,), eps=1e-05, elementwise_affine=True)\n          (reduction): Linear(in_features=512, out_features=256, bias=False)\n        )\n        (blocks): Sequential(\n          (0): SwinTransformerBlock(\n            (norm1): LayerNorm((256,), eps=1e-05, elementwise_affine=True)\n            (attn): WindowAttention(\n              (qkv): Linear(in_features=256, out_features=768, bias=True)\n              (attn_drop): Dropout(p=0.0, inplace=False)\n              (proj): Linear(in_features=256, out_features=256, bias=True)\n              (proj_drop): Dropout(p=0.0, inplace=False)\n              (softmax): Softmax(dim=-1)\n            )\n            (drop_path1): DropPath(drop_prob=0.009)\n            (norm2): LayerNorm((256,), eps=1e-05, elementwise_affine=True)\n            (mlp): Mlp(\n              (fc1): Linear(in_features=256, out_features=1024, bias=True)\n              (act): GELU(approximate='none')\n              (drop1): Dropout(p=0.0, inplace=False)\n              (norm): Identity()\n              (fc2): Linear(in_features=1024, out_features=256, bias=True)\n              (drop2): Dropout(p=0.0, inplace=False)\n            )\n            (drop_path2): DropPath(drop_prob=0.009)\n          )\n          (1): SwinTransformerBlock(\n            (norm1): LayerNorm((256,), eps=1e-05, elementwise_affine=True)\n            (attn): WindowAttention(\n              (qkv): Linear(in_features=256, out_features=768, bias=True)\n              (attn_drop): Dropout(p=0.0, inplace=False)\n              (proj): Linear(in_features=256, out_features=256, bias=True)\n              (proj_drop): Dropout(p=0.0, inplace=False)\n              (softmax): Softmax(dim=-1)\n            )\n            (drop_path1): DropPath(drop_prob=0.013)\n            (norm2): LayerNorm((256,), eps=1e-05, elementwise_affine=True)\n            (mlp): Mlp(\n              (fc1): Linear(in_features=256, out_features=1024, bias=True)\n              (act): GELU(approximate='none')\n              (drop1): Dropout(p=0.0, inplace=False)\n              (norm): Identity()\n              (fc2): Linear(in_features=1024, out_features=256, bias=True)\n              (drop2): Dropout(p=0.0, inplace=False)\n            )\n            (drop_path2): DropPath(drop_prob=0.013)\n          )\n        )\n      )\n      (2): SwinTransformerStage(\n        (downsample): PatchMerging(\n          (norm): LayerNorm((1024,), eps=1e-05, elementwise_affine=True)\n          (reduction): Linear(in_features=1024, out_features=512, bias=False)\n        )\n        (blocks): Sequential(\n          (0): SwinTransformerBlock(\n            (norm1): LayerNorm((512,), eps=1e-05, elementwise_affine=True)\n            (attn): WindowAttention(\n              (qkv): Linear(in_features=512, out_features=1536, bias=True)\n              (attn_drop): Dropout(p=0.0, inplace=False)\n              (proj): Linear(in_features=512, out_features=512, bias=True)\n              (proj_drop): Dropout(p=0.0, inplace=False)\n              (softmax): Softmax(dim=-1)\n            )\n            (drop_path1): DropPath(drop_prob=0.017)\n            (norm2): LayerNorm((512,), eps=1e-05, elementwise_affine=True)\n            (mlp): Mlp(\n              (fc1): Linear(in_features=512, out_features=2048, bias=True)\n              (act): GELU(approximate='none')\n              (drop1): Dropout(p=0.0, inplace=False)\n              (norm): Identity()\n              (fc2): Linear(in_features=2048, out_features=512, bias=True)\n              (drop2): Dropout(p=0.0, inplace=False)\n            )\n            (drop_path2): DropPath(drop_prob=0.017)\n          )\n          (1): SwinTransformerBlock(\n            (norm1): LayerNorm((512,), eps=1e-05, elementwise_affine=True)\n            (attn): WindowAttention(\n              (qkv): Linear(in_features=512, out_features=1536, bias=True)\n              (attn_drop): Dropout(p=0.0, inplace=False)\n              (proj): Linear(in_features=512, out_features=512, bias=True)\n              (proj_drop): Dropout(p=0.0, inplace=False)\n              (softmax): Softmax(dim=-1)\n            )\n            (drop_path1): DropPath(drop_prob=0.022)\n            (norm2): LayerNorm((512,), eps=1e-05, elementwise_affine=True)\n            (mlp): Mlp(\n              (fc1): Linear(in_features=512, out_features=2048, bias=True)\n              (act): GELU(approximate='none')\n              (drop1): Dropout(p=0.0, inplace=False)\n              (norm): Identity()\n              (fc2): Linear(in_features=2048, out_features=512, bias=True)\n              (drop2): Dropout(p=0.0, inplace=False)\n            )\n            (drop_path2): DropPath(drop_prob=0.022)\n          )\n          (2): SwinTransformerBlock(\n            (norm1): LayerNorm((512,), eps=1e-05, elementwise_affine=True)\n            (attn): WindowAttention(\n              (qkv): Linear(in_features=512, out_features=1536, bias=True)\n              (attn_drop): Dropout(p=0.0, inplace=False)\n              (proj): Linear(in_features=512, out_features=512, bias=True)\n              (proj_drop): Dropout(p=0.0, inplace=False)\n              (softmax): Softmax(dim=-1)\n            )\n            (drop_path1): DropPath(drop_prob=0.026)\n            (norm2): LayerNorm((512,), eps=1e-05, elementwise_affine=True)\n            (mlp): Mlp(\n              (fc1): Linear(in_features=512, out_features=2048, bias=True)\n              (act): GELU(approximate='none')\n              (drop1): Dropout(p=0.0, inplace=False)\n              (norm): Identity()\n              (fc2): Linear(in_features=2048, out_features=512, bias=True)\n              (drop2): Dropout(p=0.0, inplace=False)\n            )\n            (drop_path2): DropPath(drop_prob=0.026)\n          )\n          (3): SwinTransformerBlock(\n            (norm1): LayerNorm((512,), eps=1e-05, elementwise_affine=True)\n            (attn): WindowAttention(\n              (qkv): Linear(in_features=512, out_features=1536, bias=True)\n              (attn_drop): Dropout(p=0.0, inplace=False)\n              (proj): Linear(in_features=512, out_features=512, bias=True)\n              (proj_drop): Dropout(p=0.0, inplace=False)\n              (softmax): Softmax(dim=-1)\n            )\n            (drop_path1): DropPath(drop_prob=0.030)\n            (norm2): LayerNorm((512,), eps=1e-05, elementwise_affine=True)\n            (mlp): Mlp(\n              (fc1): Linear(in_features=512, out_features=2048, bias=True)\n              (act): GELU(approximate='none')\n              (drop1): Dropout(p=0.0, inplace=False)\n              (norm): Identity()\n              (fc2): Linear(in_features=2048, out_features=512, bias=True)\n              (drop2): Dropout(p=0.0, inplace=False)\n            )\n            (drop_path2): DropPath(drop_prob=0.030)\n          )\n          (4): SwinTransformerBlock(\n            (norm1): LayerNorm((512,), eps=1e-05, elementwise_affine=True)\n            (attn): WindowAttention(\n              (qkv): Linear(in_features=512, out_features=1536, bias=True)\n              (attn_drop): Dropout(p=0.0, inplace=False)\n              (proj): Linear(in_features=512, out_features=512, bias=True)\n              (proj_drop): Dropout(p=0.0, inplace=False)\n              (softmax): Softmax(dim=-1)\n            )\n            (drop_path1): DropPath(drop_prob=0.035)\n            (norm2): LayerNorm((512,), eps=1e-05, elementwise_affine=True)\n            (mlp): Mlp(\n              (fc1): Linear(in_features=512, out_features=2048, bias=True)\n              (act): GELU(approximate='none')\n              (drop1): Dropout(p=0.0, inplace=False)\n              (norm): Identity()\n              (fc2): Linear(in_features=2048, out_features=512, bias=True)\n              (drop2): Dropout(p=0.0, inplace=False)\n            )\n            (drop_path2): DropPath(drop_prob=0.035)\n          )\n          (5): SwinTransformerBlock(\n            (norm1): LayerNorm((512,), eps=1e-05, elementwise_affine=True)\n            (attn): WindowAttention(\n              (qkv): Linear(in_features=512, out_features=1536, bias=True)\n              (attn_drop): Dropout(p=0.0, inplace=False)\n              (proj): Linear(in_features=512, out_features=512, bias=True)\n              (proj_drop): Dropout(p=0.0, inplace=False)\n              (softmax): Softmax(dim=-1)\n            )\n            (drop_path1): DropPath(drop_prob=0.039)\n            (norm2): LayerNorm((512,), eps=1e-05, elementwise_affine=True)\n            (mlp): Mlp(\n              (fc1): Linear(in_features=512, out_features=2048, bias=True)\n              (act): GELU(approximate='none')\n              (drop1): Dropout(p=0.0, inplace=False)\n              (norm): Identity()\n              (fc2): Linear(in_features=2048, out_features=512, bias=True)\n              (drop2): Dropout(p=0.0, inplace=False)\n            )\n            (drop_path2): DropPath(drop_prob=0.039)\n          )\n          (6): SwinTransformerBlock(\n            (norm1): LayerNorm((512,), eps=1e-05, elementwise_affine=True)\n            (attn): WindowAttention(\n              (qkv): Linear(in_features=512, out_features=1536, bias=True)\n              (attn_drop): Dropout(p=0.0, inplace=False)\n              (proj): Linear(in_features=512, out_features=512, bias=True)\n              (proj_drop): Dropout(p=0.0, inplace=False)\n              (softmax): Softmax(dim=-1)\n            )\n            (drop_path1): DropPath(drop_prob=0.043)\n            (norm2): LayerNorm((512,), eps=1e-05, elementwise_affine=True)\n            (mlp): Mlp(\n              (fc1): Linear(in_features=512, out_features=2048, bias=True)\n              (act): GELU(approximate='none')\n              (drop1): Dropout(p=0.0, inplace=False)\n              (norm): Identity()\n              (fc2): Linear(in_features=2048, out_features=512, bias=True)\n              (drop2): Dropout(p=0.0, inplace=False)\n            )\n            (drop_path2): DropPath(drop_prob=0.043)\n          )\n          (7): SwinTransformerBlock(\n            (norm1): LayerNorm((512,), eps=1e-05, elementwise_affine=True)\n            (attn): WindowAttention(\n              (qkv): Linear(in_features=512, out_features=1536, bias=True)\n              (attn_drop): Dropout(p=0.0, inplace=False)\n              (proj): Linear(in_features=512, out_features=512, bias=True)\n              (proj_drop): Dropout(p=0.0, inplace=False)\n              (softmax): Softmax(dim=-1)\n            )\n            (drop_path1): DropPath(drop_prob=0.048)\n            (norm2): LayerNorm((512,), eps=1e-05, elementwise_affine=True)\n            (mlp): Mlp(\n              (fc1): Linear(in_features=512, out_features=2048, bias=True)\n              (act): GELU(approximate='none')\n              (drop1): Dropout(p=0.0, inplace=False)\n              (norm): Identity()\n              (fc2): Linear(in_features=2048, out_features=512, bias=True)\n              (drop2): Dropout(p=0.0, inplace=False)\n            )\n            (drop_path2): DropPath(drop_prob=0.048)\n          )\n          (8): SwinTransformerBlock(\n            (norm1): LayerNorm((512,), eps=1e-05, elementwise_affine=True)\n            (attn): WindowAttention(\n              (qkv): Linear(in_features=512, out_features=1536, bias=True)\n      …
)\n        (bn2): BatchNorm2d(128, eps=1e-05, momentum=0.1, affine=True, track_running_stats=True)\n        (act2): ReLU(inplace=True)\n        (downsample): Sequential(\n          (0): Conv2d(64, 128, kernel_size=(1, 1), stride=(2, 2), bias=False)\n          (1): BatchNorm2d(128, eps=1e-05, momentum=0.1, affine=True, track_running_stats=True)\n        )\n      )\n      (1): BasicBlock(\n        (conv1): Conv2d(128, 128, kernel_size=(3, 3), stride=(1, 1), padding=(1, 1), bias=False)\n        (bn1): BatchNorm2d(128, eps=1e-05, momentum=0.1, affine=True, track_running_stats=True)\n        (drop_block): Identity()\n        (act1): ReLU(inplace=True)\n        (aa): Identity()\n        (conv2): Conv2d(128, 128, kernel_size=(3, 3), stride=(1, 1), padding=(1, 1), bias=False)\n        (bn2): BatchNorm2d(128, eps=1e-05, momentum=0.1, affine=True, track_running_stats=True)\n        (act2): ReLU(inplace=True)\n      )\n    )\n    (layer3): Sequential(\n      (0): BasicBlock(\n        (conv1): Conv2d(128, 256, kernel_size=(3, 3), stride=(2, 2), padding=(1, 1), bias=False)\n        (bn1): BatchNorm2d(256, eps=1e-05, momentum=0.1, affine=True, track_running_stats=True)\n        (drop_block): Identity()\n        (act1): ReLU(inplace=True)\n        (aa): Identity()\n        (conv2): Conv2d(256, 256, kernel_size=(3, 3), stride=(1, 1), padding=(1, 1), bias=False)\n        (bn2): BatchNorm2d(256, eps=1e-05, momentum=0.1, affine=True, track_running_stats=True)\n        (act2): ReLU(inplace=True)\n        (downsample): Sequential(\n          (0): Conv2d(128, 256, kernel_size=(1, 1), stride=(2, 2), bias=False)\n          (1): BatchNorm2d(256, eps=1e-05, momentum=0.1, affine=True, track_running_stats=True)\n        )\n      )\n      (1): BasicBlock(\n        (conv1): Conv2d(256, 256, kernel_size=(3, 3), stride=(1, 1), padding=(1, 1), bias=False)\n        (bn1): BatchNorm2d(256, eps=1e-05, momentum=0.1, affine=True, track_running_stats=True)\n        (drop_block): Identity()\n        (act1): ReLU(inplace=True)\n        (aa): Identity()\n        (conv2): Conv2d(256, 256, kernel_size=(3, 3), stride=(1, 1), padding=(1, 1), bias=False)\n        (bn2): BatchNorm2d(256, eps=1e-05, momentum=0.1, affine=True, track_running_stats=True)\n        (act2): ReLU(inplace=True)\n      )\n    )\n    (layer4): Sequential(\n      (0): BasicBlock(\n        (conv1): Conv2d(256, 512, kernel_size=(3, 3), stride=(2, 2), padding=(1, 1), bias=False)\n        (bn1): BatchNorm2d(512, eps=1e-05, momentum=0.1, affine=True, track_running_stats=True)\n        (drop_block): Identity()\n        (act1): ReLU(inplace=True)\n        (aa): Identity()\n        (conv2): Conv2d(512, 512, kernel_size=(3, 3), stride=(1, 1), padding=(1, 1), bias=False)\n        (bn2): BatchNorm2d(512, eps=1e-05, momentum=0.1, affine=True, track_running_stats=True)\n        (act2): ReLU(inplace=True)\n        (downsample): Sequential(\n          (0): Conv2d(256, 512, kernel_size=(1, 1), stride=(2, 2), bias=False)\n          (1): BatchNorm2d(512, eps=1e-05, momentum=0.1, affine=True, track_running_stats=True)\n        )\n      )\n      (1): BasicBlock(\n        (conv1): Conv2d(512, 512, kernel_size=(3, 3), stride=(1, 1), padding=(1, 1), bias=False)\n        (bn1): BatchNorm2d(512, eps=1e-05, momentum=0.1, affine=True, track_running_stats=True)\n        (drop_block): Identity()\n        (act1): ReLU(inplace=True)\n        (aa): Identity()\n        (conv2): Conv2d(512, 512, kernel_size=(3, 3), stride=(1, 1), padding=(1, 1), bias=False)\n        (bn2): BatchNorm2d(512, eps=1e-05, momentum=0.1, affine=True, track_running_stats=True)\n        (act2): ReLU(inplace=True)\n      )\n    )\n    (global_pool): SelectAdaptivePool2d(pool_type=avg, flatten=Flatten(start_dim=1, end_dim=-1))\n    (fc): Linear(in_features=512, out_features=2, bias=True)\n  )\n  (modelE): EfficientNet(\n    (conv_stem): Conv2d(3, 24, kernel_size=(3, 3), stride=(2, 2), padding=(1, 1), bias=False)\n    (bn1): BatchNormAct2d(\n      24, eps=1e-05, momentum=0.1, affine=True, track_running_stats=True\n      (drop): Identity()\n      (act): SiLU(inplace=True)\n    )\n    (blocks): Sequential(\n      (0): Sequential(\n        (0): EdgeResidual(\n          (conv_exp): Conv2d(24, 24, kernel_size=(3, 3), stride=(1, 1), padding=(1, 1), bias=False)\n          (bn1): BatchNormAct2d(\n            24, eps=1e-05, momentum=0.1, affine=True, track_running_stats=True\n            (drop): Identity()\n            (act): SiLU(inplace=True)\n          )\n          (aa): Identity()\n          (se): Identity()\n          (conv_pwl): Conv2d(24, 24, kernel_size=(1, 1), stride=(1, 1), bias=False)\n          (bn2): BatchNormAct2d(\n            24, eps=1e-05, momentum=0.1, affine=True, track_running_stats=True\n            (drop): Identity()\n            (act): Identity()\n          )\n          (drop_path): Identity()\n        )\n        (1): EdgeResidual(\n          (conv_exp): Conv2d(24, 24, kernel_size=(3, 3), stride=(1, 1), padding=(1, 1), bias=False)\n          (bn1): BatchNormAct2d(\n            24, eps=1e-05, momentum=0.1, affine=True, track_running_stats=True\n            (drop): Identity()\n            (act): SiLU(inplace=True)\n          )\n          (aa): Identity()\n          (se): Identity()\n          (conv_pwl): Conv2d(24, 24, kernel_size=(1, 1), stride=(1, 1), bias=False)\n          (bn2): BatchNormAct2d(\n            24, eps=1e-05, momentum=0.1, affine=True, track_running_stats=True\n            (drop): Identity()\n            (act): Identity()\n          )\n          (drop_path): Identity()\n        )\n      )\n      (1): Sequential(\n        (0): EdgeResidual(\n          (conv_exp): Conv2d(24, 96, kernel_size=(3, 3), stride=(2, 2), padding=(1, 1), bias=False)\n          (bn1): BatchNormAct2d(\n            96, eps=1e-05, momentum=0.1, affine=True, track_running_stats=True\n            (drop): Identity()\n            (act): SiLU(inplace=True)\n          )\n          (aa): Identity()\n          (se): Identity()\n          (conv_pwl): Conv2d(96, 48, kernel_size=(1, 1), stride=(1, 1), bias=False)\n          (bn2): BatchNormAct2d(\n            48, eps=1e-05, momentum=0.1, affine=True, track_running_stats=True\n            (drop): Identity()\n            (act): Identity()\n          )\n          (drop_path): Identity()\n        )\n        (1): EdgeResidual(\n          (conv_exp): Conv2d(48, 192, kernel_size=(3, 3), stride=(1, 1), padding=(1, 1), bias=False)\n          (bn1): BatchNormAct2d(\n            192, eps=1e-05, momentum=0.1, affine=True, track_running_stats=True\n            (drop): Identity()\n            (act): SiLU(inplace=True)\n          )\n          (aa): Identity()\n          (se): Identity()\n          (conv_pwl): Conv2d(192, 48, kernel_size=(1, 1), stride=(1, 1), bias=False)\n          (bn2): BatchNormAct2d(\n            48, eps=1e-05, momentum=0.1, affine=True, track_running_stats=True\n            (drop): Identity()\n            (act): Identity()\n          )\n          (drop_path): Identity()\n        )\n        (2): EdgeResidual(\n          (conv_exp): Conv2d(48, 192, kernel_size=(3, 3), stride=(1, 1), padding=(1, 1), bias=False)\n          (bn1): BatchNormAct2d(\n            192, eps=1e-05, momentum=0.1, affine=True, track_running_stats=True\n            (drop): Identity()\n            (act): SiLU(inplace=True)\n          )\n          (aa): Identity()\n          (se): Identity()\n          (conv_pwl): Conv2d(192, 48, kernel_size=(1, 1), stride=(1, 1), bias=False)\n          (bn2): BatchNormAct2d(\n            48, eps=1e-05, momentum=0.1, affine=True, track_running_stats=True\n            (drop): Identity()\n            (act): Identity()\n          )\n          (drop_path): Identity()\n        )\n        (3): EdgeResidual(\n          (conv_exp): Conv2d(48, 192, kernel_size=(3, 3), stride=(1, 1), padding=(1, 1), bias=False)\n          (bn1): BatchNormAct2d(\n            192, eps=1e-05, momentum=0.1, affine=True, track_running_stats=True\n            (drop): Identity()\n            (act): SiLU(inplace=True)\n          )\n          (aa): Identity()\n          (se): Identity()\n          (conv_pwl): Conv2d(192, 48, kernel_size=(1, 1), stride=(1, 1), bias=False)\n          (bn2): BatchNormAct2d(\n            48, eps=1e-05, momentum=0.1, affine=True, track_running_stats=True\n            (drop): Identity()\n            (act): Identity()\n          )\n          (drop_path): Identity()\n        )\n      )\n      (2): Sequential(\n        (0): EdgeResidual(\n          (conv_exp): Conv2d(48, 192, kernel_size=(3, 3), stride=(2, 2), padding=(1, 1), bias=False)\n          (bn1): BatchNormAct2d(\n            192, eps=1e-05, momentum=0.1, affine=True, track_running_stats=True\n            (drop): Identity()\n            (act): SiLU(inplace=True)\n          )\n          (aa): Identity()\n          (se): Identity()\n          (conv_pwl): Conv2d(192, 64, kernel_size=(1, 1), stride=(1, 1), bias=False)\n          (bn2): BatchNormAct2d(\n            64, eps=1e-05, momentum=0.1, affine=True, track_running_stats=True\n            (drop): Identity()\n            (act): Identity()\n          )\n          (drop_path): Identity()\n        )\n        (1): EdgeResidual(\n          (conv_exp): Conv2d(64, 256, kernel_size=(3, 3), stride=(1, 1), padding=(1, 1), bias=False)\n          (bn1): BatchNormAct2d(\n            256, eps=1e-05, momentum=0.1, affine=True, track_running_stats=True\n            (drop): Identity()\n            (act): SiLU(inplace=True)\n          )\n          (aa): Identity()\n          (se): Identity()\n          (conv_pwl): Conv2d(256, 64, kernel_size=(1, 1), stride=(1, 1), bias=False)\n          (bn2): BatchNormAct2d(\n            64, eps=1e-05, momentum=0.1, affine=True, track_running_stats=True\n            (drop): Identity()\n            (act): Identity()\n          )\n          (drop_path): Identity()\n        )\n        (2): EdgeResidual(\n          (conv_exp): Conv2d(64, 256, kernel_size=(3, 3), stride=(1, 1), padding=(1, 1), bias=False)\n          (bn1): BatchNormAct2d(\n            256, eps=1e-05, momentum=0.1, affine=True, track_running_stats=True\n            (drop): Identity()\n            (act): SiLU(inplace=True)\n          )\n          (aa): Identity()\n          (se): Identity()\n          (conv_pwl): Conv2d(256, 64, kernel_size=(1, 1), stride=(1, 1), bias=False)\n          (bn2): BatchNormAct2d(\n            64, eps=1e-05, momentum=0.1, affine=True, track_running_stats=True\n            (drop): Identity()\n            (act): Identity()\n          )\n          (drop_path): Identity()\n        )\n        (3): EdgeResidual(\n          (conv_exp): Conv2d(64, 256, kernel_size=(3, 3), stride=(1, 1), padding=(1, 1), bias=False)\n          (bn1): BatchNormAct2d(\n            256, eps=1e-05, momentum=0.1, affine=True, track_running_stats=True\n            (drop): Identity()\n            (act): SiLU(inplace=True)\n          )\n          (aa): Identity()\n          (se): Identity()\n          (conv_pwl): Conv2d(256, 64, kernel_size=(1, 1), stride=(1, 1), bias=False)\n          (bn2): BatchNormAct2d(\n            64, eps=1e-05, momentum=0.1, affine=True, track_running_stats=True\n            (drop): Identity()\n            (act): Identity()\n          )\n          (drop_path): Identity()\n        )\n      )\n      (3): Sequential(\n        (0): InvertedResidual(\n          (conv_pw): Conv2d(64, 256, kernel_size=(1, 1), stride=(1, 1), bias=False)\n          (bn1): BatchNormAct2d(\n            256, eps=1e-05, momentum=0.1, affine=True, track_running_stats=True\n            (drop): Identity()\n            (act): SiLU(inplace=True)\n          )\n          (conv_dw): Conv2d(256, 256, kernel_size=(3, 3), stride=(2, 2), padding=(1, 1), groups=256, bias=False)\n          (bn2): BatchNormAct2d(\n            256, eps=1e-05, momentum=0.1, affine=True, track_running_stats=True\n            (drop): Identity()\n            (act): SiLU(inplace=True)\n          )\n          (aa): Identity()\n          (se): SqueezeExcite(\n            (conv_reduce): Conv2d(256, 16, kernel_size=(1, 1), stride=(1, 1))\n            (act1): SiLU(inplace=True)\n            (conv_expand): Conv2d(16, 256, kernel_size=(1, 1), stride=(1, 1))\n            (gate): Sigmoid()\n          )\n          (conv_pwl): Conv2d(256, 128, kernel_size=(1, 1), stride=(1, 1), bias=False)\n          (bn3): BatchNormAct2d(\n            128, eps=1e-05, momentum=0.1, affine=True, track_running_stats=True\n            (drop): Identity()\n            (act): Identity()\n          )\n          (drop_path): Identity()\n        )\n        (1): InvertedResidual(\n          (conv_pw): Conv2d(128, 512, kernel_size=(1, 1), stride=(1, 1), bias=False)\n          (bn1): BatchNormAct2d(\n            512, eps=1e-05, momentum=0.1, affine=True, track_running_stats=True\n            (drop): Identity()\n            (act): SiLU(inplace=True)\n          )\n          (conv_dw): Conv2d(512, 512, kernel_size=(3, 3), stride=(1, 1), padding=(1, 1), groups=512, bias=False)\n          (bn2): BatchNormAct2d(\n            512, eps=1e-05, momentum=0.1, affine=True, track_running_stats=True\n            (drop): Identity()\n            (act): SiLU(inplace=True)\n          )\n          (aa): Identity()\n          (se): SqueezeExcite(\n            (conv_reduce): Conv2d(512, 32, kernel_size=(1, 1), stride=(1, 1))\n            (act1): SiLU(inplace=True)\n            (conv_expand): Conv2d(32, 512, kernel_size=(1, 1), stride=(1, 1))\n            (gate): Sigmoid()\n          )\n          (conv_pwl): Conv2d(512, 128, kernel_size=(1, 1), stride=(1, 1), bias=False)\n          (bn3): BatchNormAct2d(\n            128, eps=1e-05, momentum=0.1, affine=True, track_running_stats=True\n            (drop): Identity()\n            (act): Identity()\n          )\n          (drop_path): Identity()\n        )\n        (2): InvertedResidual(\n          (conv_pw): Conv2d(128, 512, kernel_size=(1, 1), stride=(1, 1), bias=False)\n          (bn1): BatchNormAct2d(\n            512, eps=1e-05, momentum=0.1, affine=True, track_running_stats=True\n            (drop): Identity()\n            (act): SiLU(inplace=True)\n          )\n          (conv_dw): Conv2d(512, 512, kernel_size=(3, 3), stride=(1, 1), padding=(1, 1), groups=512, bias=False)\n          (bn2): BatchNormAct2d(\n            512, eps=1e-05, momentum=0.1, affine=True, track_running_stats=True\n            (drop): Identity()\n            (act): SiLU(inplace=True)\n          )\n          (aa): Identity()\n          (se): SqueezeExcite(\n            (conv_reduce): Conv2d(512, 32, kernel_size=(1, 1), stride=(1, 1))\n            (act1): SiLU(inplace=True)\n            (conv_expand): Conv2d(32, 512, kernel_size=(1, 1), stride=(1, 1))\n            (gate): Sigmoid()\n          )\n          (conv_pwl): Conv2d(512, 128, kernel_size=(1, 1), stride=(1, 1), bias=False)\n          (bn3): BatchNormAct2d(\n            128, eps=1e-05, momentum=0.1, affine=True, track_running_stats=True\n            (drop): Identity()\n            (act): Identity()\n          )\n          (drop_path): Identity()\n        )\n        (3): InvertedResidual(\n          (conv_pw): Conv2d(128, 512, kernel_size=(1, 1), stride=(1, 1), bias=False)\n          (bn1): BatchNormAct2d(\n            512, eps=1e-05, momentum=0.1, affine=True, track_running_stats=True\n            (drop): Identity()\n            (act): SiLU(inplace=True)\n          )\n          (conv_dw): Conv2d(512, 512, kernel_size=(3, 3), stride=(1, 1), padding=(1, 1), groups=512, bias=False)\n          (bn2): BatchNormAct2d(\n            512, eps=1e-05, momentum=0.1, affine=True, track_running_stats=True\n            (drop): Identity()\n            (act): SiLU(inplace=True)\n          )\n          (aa): Identity()\n          (se): SqueezeExcite(\n            (conv_reduce): Conv2d(512, 32, kernel_size=(1, 1), stride=(1, 1))\n            (act1): SiLU(inplace=True)\n            (conv_expand): Conv2d(32, 512, kernel_size=(1, 1), stride=(1, 1))\n            (gate): Sigmoid()\n          )\n          (conv_pwl): Conv2d(512, 128, kernel_size=(1, 1), stride=(1, 1), bias=False)\n          (bn3): BatchNormAct2d(\n            128, eps=1e-05, momentum=0.1, affine=True, track_running_stats=True\n            (drop): Identity()\n            (act): Identity()\n          )\n          (drop_path): Identity()\n        )\n        (4): InvertedResidual(\n          (conv_pw): Conv2d(128, 512, kernel_size=(1, 1), stride=(1, 1), bias=False)\n          (bn1): BatchNormAct2d(\n            512, eps=1e-05, momentum=0.1, affine=True, track_running_stats=True\n            (drop): Identity()\n            (act): SiLU(inplace=True)\n          )\n          (conv_dw): Conv2d(512, 512, kernel_size=(3, 3), stride=(1, 1), padding=(1, 1), groups=512, bias=False)\n          (bn2): BatchNormAct2d(\n            512, eps=1e-05, momentum=0.1, affine=True, track_running_stats=True\n            (drop): Identity()\n            (act): SiLU(inplace=True)\n          )\n          (aa): Identity()\n          (se): SqueezeExcite(\n            (conv_reduce): Conv2d(512, 32, kernel_size=(1, 1), stride=(1, 1))\n            (act1): SiLU(inplace=True)\n            (conv_expand): Conv2d(32, 512, kernel_size=(1, 1), stride=(1, 1))\n            (gate): Sigmoid()\n          )\n          (conv_pwl): Conv2d(512, 128, kernel_size=(1, 1), stride=(1, 1), bias=False)\n          (bn3): BatchNormAct2d(\n            128, eps=1e-05, momentum=0.1, affine=True, track_running_stats=True\n            (drop): Identity()\n            (act): Identity()\n          )\n          (drop_path): Identity()\n        )\n        (5): InvertedResidual(\n          (conv_pw): Conv2d(128, 512, kernel_size=(1, 1), stride=(1, 1), bias=False)\n          (bn1): BatchNormAct2d(\n            512, eps=1e-05, momentum=0.1, affine=True, track_running_stats=True\n            (drop): Identity()\n            (act): SiLU(inplace=True)\n          )\n          (conv_dw): Conv2d(512, 512, kernel_size=(3, 3), stride=(1, 1), padding=(1, 1), groups=512, bias=False)\n          (bn2): BatchNormAct2d(\n            512, eps=1e-05, momentum=0.1, affine=True, track_running_stats=True\n            (drop): Identity()\n            (act): SiLU(inplace=True)\n          )\n          (aa): Identity()\n          (se): SqueezeExcite(\n            (conv_reduce): Conv2d(512, 32, kernel_size=(1, 1), stride=(1, 1))\n            (act1): SiLU(inplace=True)\n            (conv_expand): Conv2d(32, 512, kernel_size=(1, 1), stride=(1, 1))\n            (gate): Sigmoid()\n          )\n          (conv_pwl): Conv2d(512, 128, kernel_size=(1, 1), stride=(1, 1), bias=False)\n          (bn3): BatchNormAct2d(\n            128, eps=1e-05, momentum=0.1, affine=True, track_running_stats=True\n            (drop): Identity()\n            (act): Identity()\n          )\n          (drop_path): Identity()\n        )\n      )\n      (4): Sequential(\n        (0): InvertedResidual(\n          (conv_pw): Conv2d(128, 768, kernel_size=(1, 1), stride=(1, 1), bias=False)\n          (bn1): BatchNormAct2d(\n            768, eps=1e-05, momentum=0.1, affine=True, track_running_stats=True\n            (drop): Identity()\n            (act): SiLU(inplace=True)\n          )\n          (conv_dw): Conv2d(768, 768, kernel_size=(3, 3), stride=(1, 1), padding=(1, 1), groups=768, bias=False)\n          (bn2): BatchNormAct2d(\n            768, eps=1e-05, momentum=0.1, affine=True, track_running_stats=True\n            (drop): Identity()\n            (act): SiLU(inplace=True)\n          )\n          (aa): Identity()\n          (se): SqueezeExcite(\n            (conv_reduce): Conv2d(768, 32, kernel_size=(1, 1), stride=(1, 1))\n            (act1): SiLU(inplace=True)\n            (conv_expand): Conv2d(32, 768, kernel_size=(1, 1), stride=(1, 1))\n            (gate): Sigmoid()\n          )\n          (conv_pwl): Conv2d(768, 160, kernel_size=(1, 1), stride=(1, 1), bias=False)\n          (bn3): BatchNormAct2d(\n            160, eps=1e-05, momentum=0.1, affine=True, track_running_stats=True\n            (drop): Identity()\n            (act): Identity()\n          )\n          (drop_path): Identity()\n        )\n        (1): InvertedResidual(\n          (conv_pw): Conv2d(160, 960, kernel_size=(1, 1), stride=(1, 1), bias=False)\n          (bn1): BatchNormAct2d(\n            960, eps=1e-05, momentum=0.1, affine=True, track_running_stats=True\n            (drop): Identity()\n            (act): SiLU(inplace=True)\n          )\n          (conv_dw): Conv2d(960, 960, kernel_size=(3, 3), stride=(1, 1), padding=(1, 1), groups=960, bias=False)\n          (bn2): BatchNormAct2d(\n            960, eps=1e-05, momentum=0.1, affine=True, track_running_stats=True\n            (drop): Identity()\n            (act): SiLU(inplace=True)\n          )\n          (aa): Identity()\n          (se): SqueezeExcite(\n            (conv_reduce): Conv2d(960, 40, kernel_size=(1, 1), stride=(1, 1))\n            (act1): SiLU(inplace=True)\n            (conv_expand): Conv2d(40, 960, kernel_size=(1, 1), stride=(1, 1))\n            (gate): Sigmoid()\n          )\n          (conv_pwl): Conv2d(960, 160, kernel_size=(1, 1), stride=(1, 1), bias=False)\n          (bn3): BatchNormAct2d(\n            160, eps=1e-05, momentum=0.1, affine=True, track_running_stats=True\n            (drop): Identity()\n            (act): Identity()\n          )\n          (drop_path): Identity()\n        )\n        (2): InvertedResidual(\n          (conv_pw): Conv2d(160, 960, kernel_size=(1, 1), stride=(1, 1), bias=False)\n          (bn1): BatchNormAct2d(\n            960, eps=1e-05, momentum=0.1, affine=True, track_running_stats=True\n            (drop): Identity()\n            (act): SiLU(inplace=True)\n          )\n          (conv_dw): Conv2d(960, 960, kernel_size=(3, 3), stride=(1, 1), padding=(1, 1), groups=960, bias=False)\n          (bn2): BatchNormAct2d(\n            960, eps=1e-05, momentum=0.1, affine=True, track_running_stats=True\n            (drop): Identity()\n            (act): SiLU(inplace=True)\n          )\n          (aa): Identity()\n          (se): SqueezeExcite(\n            (conv_reduce): Conv2d(960, 40, kernel_size=(1, 1), stride=(1, 1))\n            (act1): SiLU(inplace=True)\n            (conv_expand): Conv2d(40, 960, kernel_size=(1, 1), stride=(1, 1))\n            (gate): Sigmoid()\n          )\n          (conv_pwl): Conv2d(960, 160, kernel_size=(1, 1), stride=(1, 1), bias=False)\n          (bn3): BatchNormAct2d(\n            160, eps=1e-05, momentum=0.1, affine=True, track_running_stats=True\n            (drop): Identity()\n            (act): Identity()\n          )\n          (drop_path): Identity()\n        )\n        (3): InvertedResidual(\n          (conv_pw): Conv2d(160, 960, kernel_size=(1, 1), stride=(1, 1), bias=False)\n          (bn1): BatchNormAct2d(\n            960, eps=1e-05, momentum=0.1, affine=True, track_running_stats=True\n            (drop): Identity()\n            (act): SiLU(inplace=True)\n          )\n          (conv_dw): Conv2d(960, 960, kernel_size=(3, 3), stride=(1, 1), padding=(1, 1), groups=960, bias=False)\n          (bn2): BatchNormAct2d(\n            960, eps=1e-05, momentum=0.1, affine=True, track_running_stats=True\n            (drop): Identity()\n            (act): SiLU(inplace=True)\n          )\n          (aa): Identity()\n          (se): SqueezeExcite(\n            (conv_reduce): Conv2d(960, 40, kernel_size=(1, 1), stride=(1, 1))\n            (act1): SiLU(inplace=True)\n            (conv_expand): Conv2d(40, 960, kernel_size=(1, 1), stride=(1, 1))\n            (gate): Sigmoid()\n          )\n          (conv_pwl): Conv2d(960, 160, kernel_size=(1, 1), stride=(1, 1), bias=False)\n          (bn3): BatchNormAct2d(\n            160, eps=1e-05, momentum=0.1, affine=True, track_running_stats=True\n            (drop): Identity()\n            (act): Identity()\n          )\n          (drop_path): Identity()\n        )\n        (4): InvertedResidual(\n          (conv_pw): Conv2d(160, 960, kernel_size=(1, 1), stride=(1, 1), bias=False)\n          (bn1): BatchNormAct2d(\n            960, eps=1e-05, momentum=0.1, affine=True, track_running_stats=True\n            (drop): Identity()\n            (act): SiLU(inplace=True)\n          )\n          (conv_dw): Conv2d(960, 960, kernel_size=(3, 3), stride=(1, 1), padding=(1, 1), groups=960, bias=False)\n          (bn2): BatchNormAct2d(\n            960, eps=1e-05, momentum=0.1, affine=True, track_running_stats=True\n            (drop): Identity()\n            (act): SiLU(inplace=True)\n          )\n          (aa): Identity()\n          (se): SqueezeExcite(\n            (conv_reduce): Conv2d(960, 40, kernel_size=(1, 1), stride=(1, 1))\n            (act1): SiLU(inplace=True)\n            (conv_expand): Conv2d(40, 960, kernel_size=(1, 1), stride=(1, 1))\n            (gate): Sigmoid()\n          )\n          (conv_pwl): Conv2d(960, 160, kernel_size=(1, 1), stride=(1, 1), bias=False)\n          (bn3): BatchNormAct2d(\n            160, eps=1e-05, momentum=0.1, affine=True, track_running_stats=True\n            (drop): Identity()\n            (act): Identity()\n          )\n          (drop_path): Identity()\n        )\n        (5): InvertedResidual(\n          (conv_pw): Conv2d(160, 960, kernel_size=(1, 1), stride=(1, 1), bias=False)\n          (bn1): BatchNormAct2d(\n            960, eps=1e-05, momentum=0.1, affine=True, track_running_stats=True\n            (drop): Identity()\n            (act): SiLU(inplace=True)\n          )\n          (conv_dw): Conv2d(960, 960, kernel_size=(3, 3), stride=(1, 1), padding=(1, 1), groups=960, bias=False)\n          (bn2): BatchNormAct2d(\n            960, eps=1e-05, momentum=0.1, affine=True, track_running_stats=True\n            (drop): Identity()\n            (act): SiLU(inplace=True)\n          )\n          (aa): Identity()\n          (se): SqueezeExcite(\n            (conv_reduce): Conv2d(960, 40, kernel_size=(1, 1), stride=(1, 1))\n            (act1): SiLU(inplace=True)\n            (conv_expand): Conv2d(40, 960, kernel_size=(1, 1), stride=(1, 1))\n            (gate): Sigmoid()\n          )\n          (conv_pwl): Conv2d(960, 160, kernel_size=(1, 1), stride=(1, 1), bias=False)\n          (bn3): BatchNormAct2d(\n            160, eps=1e-05, momentum=0.1, affine=True, track_running_stats=True\n            (drop): Identity()\n            (act): Identity()\n          )\n          (drop_path): Identity()\n        )\n        (6): InvertedResidual(\n          (conv_pw): Conv2d(160, 960, kernel_size=(1, 1), stride=(1, 1), bias=False)\n          (bn1): BatchNormAct2d(\n            960, eps=1e-05, momentum=0.1, affine=True, track_running_stats=True\n            (drop): Identity()\n            (act): SiLU(inplace=True)\n          )\n          (conv_dw): Conv2d(960, 960, kernel_size=(3, 3), stride=(1, 1), padding=(1, 1), groups=960, bias=False)\n          (bn2): BatchNormAct2d(\n            960, eps=1e-05, momentum=0.1, affine=True, track_running_stats=True\n            (drop): Identity()\n            (act): SiLU(inplace=True)\n          )\n          (aa): Identity()\n          (se): SqueezeExcite(\n            (conv_reduce): Conv2d(960, 40, kernel_size=(1, 1), stride=(1, 1))\n            (act1): SiLU(inplace=True)\n            (conv_expand): Conv2d(40, 960, kernel_size=(1, 1), stride=(1, 1))\n            (gate): Sigmoid()\n          )\n          (conv_pwl): Conv2d(960, 160, kernel_size=(1, 1), stride=(1, 1), bias=False)\n          (bn3): BatchNormAct2d(\n            160, eps=1e-05, momentum=0.1, affine=True, track_running_stats=True\n            (drop): Identity()\n            (act): Identity()\n          )\n          (drop_path): Identity()\n        )\n        (7): InvertedResidual(\n          (conv_pw): Conv2d(160, 960, kernel_size=(1, 1), stride=(1, 1), bias=False)\n          (bn1): BatchNormAct2d(\n            960, eps=1e-05, momentum=0.1, affine=True, track_running_stats=True\n            (drop): Identity()\n            (act): SiLU(inplace=True)\n          )\n          (conv_dw): Conv2d(960, 960, kernel_size=(3, 3), stride=(1, 1), padding=(1, 1), groups=960, bias=False)\n          (bn2): BatchNormAct2d(\n            960, eps=1e-05, momentum=0.1, affine=True, track_running_stats=True\n            (drop): Identity()\n            (act): SiLU(inplace=True)\n          )\n          (aa): Identity()\n          (se): SqueezeExcite(\n            (conv_reduce): Conv2d(960, 40, kernel_size=(1, 1), stride=(1, 1))\n            (act1): SiLU(inplace=True)\n            (conv_expand): Conv2d(40, 960, kernel_size=(1, 1), stride=(1, 1))\n            (gate): Sigmoid()\n          )\n          (conv_pwl): Conv2d(960, 160, kernel_size=(1, 1), stride=(1, 1), bias=False)\n          (bn3): BatchNormAct2d(\n            160, eps=1e-05, momentum=0.1, affine=True, track_running_stats=True\n            (drop): Identity()\n            (act): Identity()\n          )\n          (drop_path): Identity()\n        )\n        (8): InvertedResidual(\n          (conv_pw): Conv2d(160, 960, kernel_size=(1, 1), stride=(1, 1), bias=False)\n          (bn1): BatchNormAct2d(\n            960, eps=1e-05, momentum=0.1, affine=True, track_running_stats=True\n            (drop): Identity()\n            (act): SiLU(inplace=True)\n          )\n          (conv_dw): Conv2d(960, 960, kernel_size=(3, 3), stride=(1, 1), padding=(1, 1), groups=960, bias=False)\n          (bn2): BatchNormAct2d(\n            960, eps=1e-05, momentum=0.1, affine=True, track_running_stats=True\n            (drop): Identity()\n            (act): SiLU(inplace=True)\n          )\n          (aa): Identity()\n          (se): SqueezeExcite(\n            (conv_reduce): Conv2d(960, 40, kernel_size=(1, 1), stride=(1, 1))\n            (act1): SiLU(inplace=True)\n            (conv_expand): Conv2d(40, 960, kernel_size=(1, 1), stride=(1, 1))\n            (gate): Sigmoid()\n          )\n          (conv_pwl): Conv2d(960, 160, kernel_size=(1, 1), stride=(1, 1), bias=False)\n          (bn3): BatchNormAct2d(\n            160, eps=1e-05, momentum=0.1, affine=True, track_running_stats=True\n            (drop): Identity()\n            (act): Identity()\n          )\n          (drop_path): Identity()\n        )\n      )\n      (5): Sequential(\n        (0): InvertedResidual(\n          (conv_pw): Conv2d(160, 960, kernel_size=(1, 1), stride=(1, 1), bias=False)\n          (bn1): BatchNormAct2d(\n            960, eps=1e-05, momentum=0.1, affine=True, track_running_stats=True\n            (drop): Identity()\n            (act): SiLU(inplace=True)\n          )\n          (conv_dw): Conv2d(960, 960, kernel_size=(3, 3), stride=(2, 2), padding=(1, 1), groups=960, bias=False)\n          (bn2): BatchNormAct2d(\n            960, eps=1e-05, momentum=0.1, affine=True, track_running_stats=True\n            (drop): Identity()\n            (act): SiLU(inplace=True)\n          )\n          (aa): Identity()\n          (se): SqueezeExcite(\n            (conv_reduce): Conv2d(960, 40, kernel_size=(1, 1), stride=(1, 1))\n            (act1): SiLU(inplace=True)\n            (conv_expand): Conv2d(40, 960, kernel_size=(1, 1), stride=(1, 1))\n            (gate): Sigmoid()\n          )\n          (conv_pwl): Conv2d(960, 272, kernel_size=(1, 1), stride=(1, 1), bias=False)\n          (bn3): BatchNormAct2d(\n            272, eps=1e-05, momentum=0.1, affine=True, track_running_stats=True\n            (drop): Identity()\n            (act): Identity()\n          )\n          (drop_path): Identity()\n        )\n        (1): InvertedResidual(\n          (conv_pw): Conv2d(272, 1632, kernel_size=(1, 1), stride=(1, 1), bias=False)\n          (bn1): BatchNormAct2d(\n            1632, eps=1e-05, momentum=0.1, affine=True, track_running_stats=True\n            (drop): Identity()\n            (act): SiLU(inplace=True)\n          )\n          (conv_dw): Conv2d(1632, 1632, kernel_size=(3, 3), stride=(1, 1), padding=(1, 1), groups=1632, bias=False)\n          (bn2): BatchNormAct2d(\n            1632, eps=1e-05, momentum=0.1, affine=True, track_running_stats=True\n            (drop): Identity()\n            (act): SiLU(inplace=True)\n          )\n          (aa): Identity()\n          (se): SqueezeExcite(\n            (conv_reduce): Conv2d(1632, 68, kernel_size=(1, 1), stride=(1, 1))\n            (act1): SiLU(inplace=True)\n            (conv_expand): Conv2d(68, 1632, kernel_size=(1, 1), stride=(1, 1))\n            (gate): Sigmoid()\n          )\n          (conv_pwl): Conv2d(1632, 272, kernel_size=(1, 1), stride=(1, 1), bias=False)\n          (bn3): BatchNormAct2d(\n            272, eps=1e-05, momentum=0.1, affine=True, track_running_stats=True\n            (drop): Identity()\n            (act): Identity()\n          )\n          (drop_path): Identity()\n        )\n        (2): InvertedResidual(\n          (conv_pw): Conv2d(272, 1632, kernel_size=(1, 1), stride=(1, 1), bias=False)\n          (bn1): BatchNormAct2d(\n            1632, eps=1e-05, momentum=0.1, affine=True, track_running_stats=True\n            (drop): Identity()\n            (act): SiLU(inplace=True)\n          )\n          (conv_dw): Conv2d(1632, 1632, kernel_size=(3, 3), stride=(1, 1), padding=(1, 1), groups=1632, bias=False)\n          (bn2): BatchNormAct2d(\n            1632, eps=1e-05, momentum=0.1, affine=True, track_running_stats=True\n            (drop): Identity()\n            (act): SiLU(inplace=True)\n          )\n          (aa): Identity()\n          (se): SqueezeExcite(\n            (conv_reduce): Conv2d(1632, 68, kernel_size=(1, 1), stride=(1, 1))\n            (act1): SiLU(inplace=True)\n            (conv_expand): Conv2d(68, 1632, kernel_size=(1, 1), stride=(1, 1))\n            (gate): Sigmoid()\n          )\n          (conv_pwl): Conv2d(1632, 272, kernel_size=(1, 1), stride=(1, 1), bias=False)\n          (bn3): BatchNormAct2d(\n            272, eps=1e-05, momentum=0.1, affine=True, track_running_stats=True\n            (drop): Identity()\n            (act): Identity()\n          )\n          (drop_path): Identity()\n        )\n        (3): InvertedResidual(\n          (conv_pw): Conv2d(272, 1632, kernel_size=(1, 1), stride=(1, 1), bias=False)\n          (bn1): BatchNormAct2d(\n            1632, eps=1e-05, momentum=0.1, affine=True, track_running_stats=True\n            (drop): Identity()\n            (act): SiLU(inplace=True)\n          )\n          (conv_dw): Conv2d(1632, 1632, kernel_size=(3, 3), stride=(1, 1), padding=(1, 1), groups=1632, bias=False)\n          (bn2): BatchNormAct2d(\n            1632, eps=1e-05, momentum=0.1, affine=True, track_running_stats=True\n            (drop): Identity()\n            (act): SiLU(inplace=True)\n          )\n          (aa): Identity()\n          (se): SqueezeExcite(\n            (conv_reduce): Conv2d(1632, 68, kernel_size=(1, 1), stride=(1, 1))\n            (act1): SiLU(inplace=True)\n            (conv_expand): Conv2d(68, 1632, kernel_size=(1, 1), stride=(1, 1))\n            (gate): Sigmoid()\n          )\n          (conv_pwl): Conv2d(1632, 272, kernel_size=(1, 1), stride=(1, 1), bias=False)\n          (bn3): BatchNormAct2d(\n            272, eps=1e-05, momentum=0.1, affine=True, track_running_stats=True\n            (drop): Identity()\n            (act): Identity()\n          )\n          (drop_path): Identity()\n        )\n        (4): InvertedResidual(\n          (conv_pw): Conv2d(272, 1632, kernel_size=(1, 1), stride=(1, 1), bias=False)\n          (bn1): BatchNormAct2d(\n            1632, eps=1e-05, momentum=0.1, affine=True, track_running_stats=True\n            (drop): Identity()\n            (act): SiLU(inplace=True)\n          )\n          (conv_dw): Conv2d(1632, 1632, kernel_size=(3, 3), stride=(1, 1), padding=(1, 1), groups=1632, bias=False)\n          (bn2): BatchNormAct2d(\n            1632, eps=1e-05, momentum=0.1, affine=True, track_running_stats=True\n            (drop): Identity()\n            (act): SiLU(inplace=True)\n          )\n          (aa): Identity()\n          (se): SqueezeExcite(\n            (conv_reduce): Conv2d(1632, 68, kernel_size=(1, 1), stride=(1, 1))\n            (act1): SiLU(inplace=True)\n            (conv_expand): Conv2d(68, 1632, kernel_size=(1, 1), stride=(1, 1))\n            (gate): Sigmoid()\n          )\n          (conv_pwl): Conv2d(1632, 272, kernel_size=(1, 1), stride=(1, 1), bias=False)\n          (bn3): BatchNormAct2d(\n            272, eps=1e-05, momentum=0.1, affine=True, track_running_stats=True\n            (drop): Identity()\n            (act): Identity()\n          )\n          (drop_path): Identity()\n        )\n        (5): InvertedResidual(\n          (conv_pw): Conv2d(272, 1632, kernel_size=(1, 1), stride=(1, 1), bias=False)\n          (bn1): BatchNormAct2d(\n            1632, eps=1e-05, momentum=0.1, affine=True, track_running_stats=True\n            (drop): Identity()\n            (act): SiLU(inplace=True)\n          )\n          (conv_dw): Conv2d(1632, 1632, kernel_size=(3, 3), stride=(1, 1), padding=(1, 1), groups=1632, bias=False)\n          (bn2): BatchNormAct2d(\n            1632, eps=1e-05, momentum=0.1, affine=True, track_running_stats=True\n            (drop): Identity()\n            (act): SiLU(inplace=True)\n          )\n          (aa): Identity()\n          (se): SqueezeExcite(\n            (conv_reduce): Conv2d(1632, 68, kernel_size=(1, 1), stride=(1, 1))\n            (act1): SiLU(inplace=True)\n            (conv_expand): Conv2d(68, 1632, kernel_size=(1, 1), stride=(1, 1))\n            (gate): Sigmoid()\n          )\n          (conv_pwl): Conv2d(1632, 272, kernel_size=(1, 1), stride=(1, 1), bias=False)\n          (bn3): BatchNormAct2d(\n            272, eps=1e-05, momentum=0.1, affine=True, track_running_stats=True\n            (drop): Identity()\n            (act): Identity()\n          )\n          (drop_path): Identity()\n        )\n        (6): InvertedResidual(\n          (conv_pw): Conv2d(272, 1632, kernel_size=(1, 1), stride=(1, 1), bias=False)\n          (bn1): BatchNormAct2d(\n            1632, eps=1e-05, momentum=0.1, affine=True, track_running_stats=True\n            (drop): Identity()\n            (act): SiLU(inplace=True)\n          )\n          (conv_dw): Conv2d(1632, 1632, kernel_size=(3, 3), stride=(1, 1), padding=(1, 1), groups=1632, bias=False)\n          (bn2): BatchNormAct2d(\n            1632, eps=1e-05, momentum=0.1, affine=True, track_running_stats=True\n            (drop): Identity()\n            (act): SiLU(inplace=True)\n          )\n          (aa): Identity()\n          (se): SqueezeExcite(\n            (conv_reduce): Conv2d(1632, 68, kernel_size=(1, 1), stride=(1, 1))\n            (act1): SiLU(inplace=True)\n            (conv_expand): Conv2d(68, 1632, kernel_size=(1, 1), stride=(1, 1))\n            (gate): Sigmoid()\n          )\n          (conv_pwl): Conv2d(1632, 272, kernel_size=(1, 1), stride=(1, 1), bias=False)\n          (bn3): BatchNormAct2d(\n            272, eps=1e-05, momentum=0.1, affine=True, track_running_stats=True\n            (drop): Identity()\n            (act): Identity()\n          )\n          (drop_path): Identity()\n        )\n        (7): InvertedResidual(\n          (conv_pw): Conv2d(272, 1632, kernel_size=(1, 1), stride=(1, 1), bias=False)\n          (bn1): BatchNormAct2d(\n            1632, eps=1e-05, momentum=0.1, affine=True, track_running_stats=True\n            (drop): Identity()\n            (act): SiLU(inplace=True)\n          )\n          (conv_dw): Conv2d(1632, 1632, kernel_size=(3, 3), stride=(1, 1), padding=(1, 1), groups=1632, bias=False)\n          (bn2): BatchNormAct2d(\n            1632, eps=1e-05, momentum=0.1, affine=True, track_running_stats=True\n            (drop): Identity()\n            (act): SiLU(inplace=True)\n          )\n          (aa): Identity()\n          (se): SqueezeExcite(\n            (conv_reduce): Conv2d(1632, 68, kernel_size=(1, 1), stride=(1, 1))\n            (act1): SiLU(inplace=True)\n            (conv_expand): Conv2d(68, 1632, kernel_size=(1, 1), stride=(1, 1))\n            (gate): Sigmoid()\n          )\n          (conv_pwl): Conv2d(1632, 272, kernel_size=(1, 1), stride=(1, 1), bias=False)\n          (bn3): BatchNormAct2d(\n            272, eps=1e-05, momentum=0.1, affine=True, track_running_stats=True\n            (drop): Identity()\n            (act): Identity()\n          )\n          (drop_path): Identity()\n        )\n        (8): InvertedResidual(\n          (conv_pw): Conv2d(272, 1632, kernel_size=(1, 1), stride=(1, 1), bias=False)\n          (bn1): BatchNormAct2d(\n            1632, eps=1e-05, momentum=0.1, affine=True, track_running_stats=True\n            (drop): Identity()\n            (act): SiLU(inplace=True)\n          )\n          (conv_dw): Conv2d(1632, 1632, kernel_size=(3, 3), stride=(1, 1), padding=(1, 1), groups=1632, bias=False)\n          (bn2): BatchNormAct2d(\n            1632, eps=1e-05, momentum=0.1, affine=True, track_running_stats=True\n            (drop): Identity()\n            (act): SiLU(inplace=True)\n          )\n          (aa): Identity()\n          (se): SqueezeExcite(\n            (conv_reduce): Conv2d(1632, 68, kernel_size=(1, 1), stride=(1, 1))\n            (act1): SiLU(inplace=True)\n            (conv_expand): Conv2d(68, 1632, kernel_size=(1, 1), stride=(1, 1))\n            (gate): Sigmoid()\n          )\n          (conv_pwl): Conv2d(1632, 272, kernel_size=(1, 1), stride=(1, 1), bias=False)\n          (bn3): BatchNormAct2d(\n            272, eps=1e-05, momentum=0.1, affine=True, track_running_stats=True\n            (drop): Identity()\n            (act): Identity()\n          )\n          (drop_path): Identity()\n        )\n        (9): InvertedResidual(\n          (conv_pw): Conv2d(272, 1632, kernel_size=(1, 1), stride=(1, 1), bias=False)\n          (bn1): BatchNormAct2d(\n            1632, eps=1e-05, momentum=0.1, affine=True, track_running_stats=True\n            (drop): Identity()\n            (act): SiLU(inplace=True)\n          )\n          (conv_dw): Conv2d(1632, 1632, kernel_size=(3, 3), stride=(1, 1), padding=(1, 1), groups=1632, bias=False)\n          (bn2): BatchNormAct2d(\n            1632, eps=1e-05, momentum=0.1, affine=True, track_running_stats=True\n            (drop): Identity()\n            (act): SiLU(inplace=True)\n          )\n          (aa): Identity()\n          (se): SqueezeExcite(\n            (conv_reduce): Conv2d(1632, 68, kernel_size=(1, 1), stride=(1, 1))\n            (act1): SiLU(inplace=True)\n            (conv_expand): Conv2d(68, 1632, kernel_size=(1, 1), stride=(1, 1))\n            (gate): Sigmoid()\n          )\n          (conv_pwl): Conv2d(1632, 272, kernel_size=(1, 1), stride=(1, 1), bias=False)\n          (bn3): BatchNormAct2d(\n            272, eps=1e-05, momentum=0.1, affine=True, track_running_stats=True\n            (drop): Identity()\n            (act): Identity()\n          )\n          (drop_path): Identity()\n        )\n        (10): InvertedResidual(\n          (conv_pw): Conv2d(272, 1632, kernel_size=(1, 1), stride=(1, 1), bias=False)\n          (bn1): BatchNormAct2d(\n            1632, eps=1e-05, momentum=0.1, affine=True, track_running_stats=True\n            (drop): Identity()\n            (act): SiLU(inplace=True)\n          )\n          (conv_dw): Conv2d(1632, 1632, kernel_size=(3, 3), stride=(1, 1), padding=(1, 1), groups=1632, bias=False)\n          (bn2): BatchNormAct2d(\n            1632, eps=1e-05, momentum=0.1, affine=True, track_running_stats=True\n            (drop): Identity()\n            (act): SiLU(inplace=True)\n          )\n          (aa): Identity()\n          (se): SqueezeExcite(\n            (conv_reduce): Conv2d(1632, 68, kernel_size=(1, 1), stride=(1, 1))\n            (act1): SiLU(inplace=True)\n            (conv_expand): Conv2d(68, 1632, kernel_size=(1, 1), stride=(1, 1))\n            (gate): Sigmoid()\n          )\n          (conv_pwl): Conv2d(1632, 272, kernel_size=(1, 1), stride=(1, 1), bias=False)\n          (bn3): BatchNormAct2d(\n            272, eps=1e-05, momentum=0.1, affine=True, track_running_stats=True\n            (drop): Identity()\n            (act): Identity()\n          )\n          (drop_path): Identity()\n        )\n        (11): InvertedResidual(\n          (conv_pw): Conv2d(272, 1632, kernel_size=(1, 1), stride=(1, 1), bias=False)\n          (bn1): BatchNormAct2d(\n            1632, eps=1e-05, momentum=0.1, affine=True, track_running_stats=True\n            (drop): Identity()\n            (act): SiLU(inplace=True)\n          )\n          (conv_dw): Conv2d(1632, 1632, kernel_size=(3, 3), stride=(1, 1), padding=(1, 1), groups=1632, bias=False)\n          (bn2): BatchNormAct2d(\n            1632, eps=1e-05, momentum=0.1, affine=True, track_running_stats=True\n            (drop): Identity()\n            (act): SiLU(inplace=True)\n          )\n          (aa): Identity()\n          (se): SqueezeExcite(\n            (conv_reduce): Conv2d(1632, 68, kernel_size=(1, 1), stride=(1, 1))\n            (act1): SiLU(inplace=True)\n            (conv_expand): Conv2d(68, 1632, kernel_size=(1, 1), stride=(1, 1))\n            (gate): Sigmoid()\n          )\n          (conv_pwl): Conv2d(1632, 272, kernel_size=(1, 1), stride=(1, 1), bias=False)\n          (bn3): BatchNormAct2d(\n            272, eps=1e-05, momentum=0.1, affine=True, track_running_stats=True\n            (drop): Identity()\n            (act): Identity()\n          )\n          (drop_path): Identity()\n        )\n        (12): InvertedResidual(\n          (conv_pw): Conv2d(272, 1632, kernel_size=(1, 1), stride=(1, 1), bias=False)\n          (bn1): BatchNormAct2d(\n            1632, eps=1e-05, momentum=0.1, affine=True, track_running_stats=True\n            (drop): Identity()\n            (act): SiLU(inplace=True)\n          )\n          (conv_dw): Conv2d(1632, 1632, kernel_size=(3, 3), stride=(1, 1), padding=(1, 1), groups=1632, bias=False)\n          (bn2): BatchNormAct2d(\n            1632, eps=1e-05, momentum=0.1, affine=True, track_running_stats=True\n            (drop): Identity()\n            (act): SiLU(inplace=True)\n          )\n          (aa): Identity()\n          (se): SqueezeExcite(\n            (conv_reduce): Conv2d(1632, 68, kernel_size=(1, 1), stride=(1, 1))\n            (act1): SiLU(inplace=True)\n            (conv_expand): Conv2d(68, 1632, kernel_size=(1, 1), stride=(1, 1))\n            (gate): Sigmoid()\n          )\n          (conv_pwl): Conv2d(1632, 272, kernel_size=(1, 1), stride=(1, 1), bias=False)\n          (bn3): BatchNormAct2d(\n            272, eps=1e-05, momentum=0.1, affine=True, track_running_stats=True\n            (drop): Identity()\n            (act): Identity()\n          )\n          (drop_path): Identity()\n        )\n        (13): InvertedResidual(\n          (conv_pw): Conv2d(272, 1632, kernel_size=(1, 1), stride=(1, 1), bias=False)\n          (bn1): BatchNormAct2d(\n            1632, eps=1e-05, momentum=0.1, affine=True, track_running_stats=True\n            (drop): Identity()\n            (act): SiLU(inplace=True)\n          )\n          (conv_dw): Conv2d(1632, 1632, kernel_size=(3, 3), stride=(1, 1), padding=(1, 1), groups=1632, bias=False)\n          (bn2): BatchNormAct2d(\n            1632, eps=1e-05, momentum=0.1, affine=True, track_running_stats=True\n            (drop): Identity()\n            (act): SiLU(inplace=True)\n          )\n          (aa): Identity()\n          (se): SqueezeExcite(\n            (conv_reduce): Conv2d(1632, 68, kernel_size=(1, 1), stride=(1, 1))\n            (act1): SiLU(inplace=True)\n            (conv_expand): Conv2d(68, 1632, kernel_size=(1, 1), stride=(1, 1))\n            (gate): Sigmoid()\n          )\n          (conv_pwl): Conv2d(1632, 272, kernel_size=(1, 1), stride=(1, 1), bias=False)\n          (bn3): BatchNormAct2d(\n            272, eps=1e-05, momentum=0.1, affine=True, track_running_stats=True\n            (drop): Identity()\n            (act): Identity()\n          )\n          (drop_path): Identity()\n        )\n        (14): InvertedResidual(\n          (conv_pw): Conv2d(272, 1632, kernel_size=(1, 1), stride=(1, 1), bias=False)\n          (bn1): BatchNormAct2d(\n            1632, eps=1e-05, momentum=0.1, affine=True, track_running_stats=True\n            (drop): Identity()\n            (act): SiLU(inplace=True)\n          )\n          (conv_dw): Conv2d(1632, 1632, kernel_size=(3, 3), stride=(1, 1), padding=(1, 1), groups=1632, bias=False)\n          (bn2): BatchNormAct2d(\n            1632, eps=1e-05, momentum=0.1, affine=True, track_running_stats=True\n            (drop): Identity()\n            (act): SiLU(inplace=True)\n          )\n          (aa): Identity()\n          (se): SqueezeExcite(\n            (conv_reduce): Conv2d(1632, 68, kernel_size=(1, 1), stride=(1, 1))\n            (act1): SiLU(inplace=True)\n            (conv_expand): Conv2d(68, 1632, kernel_size=(1, 1), stride=(1, 1))\n            (gate): Sigmoid()\n          )\n          (conv_pwl): Conv2d(1632, 272, kernel_size=(1, 1), stride=(1, 1), bias=False)\n          (bn3): BatchNormAct2d(\n            272, eps=1e-05, momentum=0.1, affine=True, track_running_stats=True\n            (drop): Identity()\n            (act): Identity()\n          )\n          (drop_path): Identity()\n        )\n      )\n    )\n    (conv_head): Conv2d(272, 1792, kernel_size=(1, 1), stride=(1, 1), bias=False)\n    (bn2): BatchNormAct2d(\n      1792, eps=1e-05, momentum=0.1, affine=True, track_running_stats=True\n      (drop): Identity()\n      (act): SiLU(inplace=True)\n    )\n    (global_pool): SelectAdaptivePool2d(pool_type=avg, flatten=Flatten(start_dim=1, end_dim=-1))\n    (classifier): Linear(in_features=1792, out_features=2, bias=True)\n  )\n)"},"metadata":{}}],"execution_count":92},{"cell_type":"code","source":"models = {\n    \"Swin Transformer\": model_swin,\n    \"ConvNeXt\": model_convnext,\n    \"DenseNet121\": model_densenet,\n    \"ResNet18\": model_resnet,\n    \"EfficientNetV2\": model_effnet,\n    \"Ensemble Model V2\": ensemble_model_v2\n}\n\nresults = {}\n\nfor name, mode
…
